d2l/server/test/models/export.onnx (onnx, 739 bytes, 6 tensors)

conv.0.bias f4 [3]
0.123377115 0.12108031 0.33214858
00000000: 24ad fc3d f4f8 f73d 610f aa3e

conv.0.weight f4 [3, 1, 3, 3]
0.059846163 0.05034384 -0.14635396 0.11653975 -0.2798991 -0.018514752 -0.2663889 -0.27217937
-0.2042104 0.26459137 0.004367709 0.07352093 -0.2886635 0.3152897 -0.013492972 -0.10274963
0.23531243 0.29154065 -0.07318047 0.32933792 0.21228233 -0.108091 -0.06844628 -0.08361229
0.28570715 0.0655708 0.033405542
00000000: 4021 753d 5835 4e3d d0dd 15be 64ac ee3d
00000010: ef4e 8fbe 40ac 97bc 2064 88be 185b 8bbe
00000020: 881c 51be 8578 873e 001f 8f3b 2492 963d
00000030: b4cb 93be a76d a13e a011 5dbc 666e d2bd
00000040: bef5 703e d144 953e a4df 95bd fb9e a83e
00000050: 8a60 593e d05e ddbd 902d 8cbd ec3c abbd
00000060: 3548 923e fc49 863d 40d4 083d

conv.1.bias f4 [3]
0.0 0.0 0.0
00000000: 0000 0000 0000 0000 0000 0000

conv.1.running_mean f4 [3]
0.0 0.0 0.0
00000000: 0000 0000 0000 0000 0000 0000

conv.1.running_var f4 [3]
1.0 1.0 1.0
00000000: 0000 803f 0000 803f 0000 803f

conv.1.weight f4 [3]
1.0 1.0 1.0
00000000: 0000 803f 0000 803f 0000 803f
