Project636/model/eng_test.onnx (onnx, 39392 bytes, 44 tensors)

FC.bias f4 [10]
000000 e8 c1 e2 3b d2 15 8d bf f5 6e 3f 3f bc b2 8e 3f
       0.006920088 -1.1022284 0.7477868 1.1148295
000010 83 a4 2a 3f 17 38 00 3f 16 8d 04 3e 57 dc 1e bc
       0.66657275 0.50085586 0.12944445 -0.009696088
000020 d1 a0 6f bf 57 49 88 bf
       -0.9360476 -1.0647382

FC.weight f4 [10, 64]
000000 b5 ad ef bd 5e ca 83 3c 54 11 1e 3e 3b be 00 bd
       -0.11703054 0.016087707 0.15436298 -0.031431418
000010 b6 66 06 be bf e8 1b 3e 70 d9 67 3e 00 0b 3d 3e
       -0.13125119 0.15225504 0.2264154 0.18461227
000020 c6 67 a3 be 4e fb 75 be db ea e8 be cf 2a e7 bd
       -0.3191511 -0.24021646 -0.4549168 -0.11287462
000030 fd 4d 8e 3e 6a 22 28 3e f7 1f 57 be b0 1f e8 3d
       0.27793875 0.16419378 -0.21008287 0.11334169
000040 eb 74 7c 3e 8c e2 dc 3d 07 f1 99 be 7b ef 06 bd
       0.24653976 0.10785398 -0.30066702 -0.03294323
000050 8b 92 60 be 35 f4 8c 3d 0d c9 80 bd 5b 31 b9 3e
       -0.21930902 0.06882516 -0.062883474 0.36170468
000060 53 46 f8 3d 66 fc 1d 3e 8e 38 26 3e 3e 55 b9 bd
       0.12122788 0.15428314 0.16232511 -0.09049462
000070 d2 88 fd 3d 39 7a 6b 3d 28 d9 3a bd 40 4b c9 bd
       0.12379612 0.057489607 -0.045617253 -0.09828806
000080 23 35 c0 3c 6b 5f 9c be 10 5d ed 3c f9 71 4f 3e
       0.023462838 -0.30541548 0.02897504 0.20258321
000090 a3 a1 98 be 4a a1 90 3c a1 c3 15 3d 5f 60 d3 3d
       -0.2981082 0.017655034 0.03656352 0.10321116
0000a0 9f a4 03 bd a6 ba 9e bd 3c db fe 3a 6a 9a 90 be
       -0.032139417 -0.07750444 0.0019443999 -0.2824281
0000b0 00 b0 47 bd 66 bb 25 3d 08 7f a1 bd d2 8d 4b 3e
       -0.04875183 0.04046192 -0.078855574 0.19878319
0000c0 cc 34 89 bd 89 ed 17 be c8 1c 63 bd d8 b7 81 bc
       -0.06699523 -0.14836706 -0.05544737 -0.015834734
0000d0 f7 3e e6 3e 33 22 41 3d 86 91 06 be 79 e7 90 bd
       0.44969913 0.047151756 -0.1314145 -0.070754
0000e0 65 ce 4d be 50 9f d1 bd 21 c1 24 be bb bc f8 bd
       -0.20098265 -0.102354646 -0.16089298 -0.121453725
0000f0 5a a3 a8 3e d1 d0 83 3e e2 01 15 be c8 60 f0 bd
       0.32937127 0.25745252 -0.145515 -0.117372096
000100 4f c9 ae 3d 71 de 72 be 7f ef c7 3b 7c bf 8c bd
       0.0853449 -0.23717667 0.006101548 -0.0687246
000110 7d 7c cb 3d 03 10 aa bc 51 ec c2 3d c9 a8 31 bc
       0.09935854 -0.020759588 0.0951773 -0.010843464
000120 61 17 b7 bd 8d 45 94 3d 01 cb 17 3b 54 da 5e 3e
       -0.08940006 0.07239828 0.0023161771 0.21762973
000130 2b 3f ee bc 52 62 05 3f ee e6 8f be 10 71 2b 3e
       -0.029082855 0.5210315 -0.28105873 0.16742349
000140 f9 17 6c 3e d0 ca 91 bd 68 72 12 3e 7a 9b 3f be
       0.2305602 -0.071187615 0.14301455 -0.18711653
000150 81 2c f2 bc 93 76 e2 3d 4a 0f 2e 3f d6 af 70 3e
       -0.029562237 0.110577725 0.6799208 0.23504576
000160 a9 a9 07 3d 01 0b 9b be f1 cc 82 3e c5 b8 ee bd
       0.033120785 -0.30281833 0.25546983 -0.11656336
000170 44 cc 8b bc f1 6e 81 be 38 1f 36 be 67 07 24 3e
       -0.017065175 -0.25279954 -0.17785347 0.16018449
000180 4e de 1c bf 4e 35 77 be e5 5d ac be 1e 83 5e 3d
       -0.6127671 -0.24141428 -0.33665386 0.05432426
000190 17 0d ac bd 7f d5 3b 3e d5 e8 bf bd 25 69 69 3e
       -0.08400934 0.18343161 -0.09370581 0.22794016
0001a0 c5 5e 7e 3e 49 59 a7 be 47 71 0a 3e 73 88 5b 3e
       0.24840839 -0.32685307 0.13519774 0.2143877
0001b0 f1 d1 d0 3d 78 95 5d 3e d3 1b 28 3f 73 14 56 3b
       0.10196293 0.21639049 0.65667456 0.0032665997
0001c0 10 c6 a8 be 8c 5f 82 be 04 41 ce bd cc c5 56 3e
       -0.3296361 -0.2546352 -0.100709945 0.20973891
0001d0 b7 fd 4c be bd 10 a2 3d d8 03 2e bd f4 58 26 3e
       -0.2001866 0.07913349 -0.042484134 0.1624487
0001e0 9b d4 c8 be 22 7f a1 bd 97 83 b2 be 70 0a 8a 3e
       -0.39224705 -0.07885577 -0.3486602 0.26961088
0001f0 16 17 b1 bb 48 0f 2a bd b9 0e 75 3d c6 d9 d9 be
       -0.0054043634 -0.04151848 0.059828494 -0.4254896
000200 36 4b 62 3d bf 52 b2 3e fa 08 a5 3e 2a b3 d3 3c
       0.055247508 0.34828755 0.3223341 0.025842268
000210 e0 ac 92 3d 67 34 ee bd ee 8d be 3d 46 ac 95 3d
       0.071618795 -0.11631089 0.09304415 0.07308249
000220 e6 c6 bf bb 99 72 bc bc 0e 73 cb 3d d9 85 2e 3e
       -0.005852568 -0.023003863 0.09934054 0.17043246
000230 23 dd 7a 3d f8 74 b2 3d 1f f1 45 3e f9 06 5d 3e
       0.06124605 0.08713716 0.19330262 0.21584691
000240 88 e5 e5 3d 1f 74 72 be 1f dd 0e bd 4e 8b 3b 3e
       0.1122542 -0.23677109 -0.034878846 0.1831486
000250 c8 ef 13 be 8e 49 9d be 53 0a a0 be df 6a 79 bc
       -0.14446938 -0.3072018 -0.31257877 -0.015223234
000260 79 84 66 3d 68 38 1c bc b8 8d 95 be 72 8d 05 bd
       0.05627868 -0.009534933 -0.29209685 -0.032605596
000270 66 69 67 3e e2 43 d7 bd 0e dd f9 3c 7f 04 c1 bd
       0.225988 -0.105109945 0.030500915 -0.09424686
000280 68 7e 0f 3e c4 7b 82 3e 61 38 1d 3e 55 9b 86 bd
       0.14013064 0.2548505 0.15353538 -0.06572596
000290 2e 78 90 3e 23 a5 ae bd dc 23 a7 3e d2 19 27 3c
       0.2821669 -0.08527591 0.32644546 0.010199027
0002a0 be b6 33 3b 44 84 92 3e 42 2d ff 3d 28 2c 1d be
       0.0027422155 0.28616536 0.12459804 -0.15348876
0002b0 33 46 75 3e 06 4c cc bd 6b 88 16 be 99 96 9b 3e
       0.2395256 -0.09975438 -0.14700477 0.30388334
0002c0 d5 ae b0 3d 5a a4 46 3d e9 e4 bb 3c ca aa 76 3d
       0.086270966 0.04849658 0.022936301 0.06022147
0002d0 34 df 12 3e a5 ad a1 3e 8c 9a 72 be 64 12 37 be
       0.14342958 0.31577793 -0.23691767 -0.17878109
0002e0 c1 52 8f 3e 1f c2 57 3e cb 4c 33 3e 9f 18 c4 bd
       0.27992824 0.21070145 0.17509763 -0.095750086
0002f0 6e 77 bf bd 08 4d 2d bd 1b 5a 87 bc 71 11 e8 3c
       -0.09348951 -0.04230979 -0.016522458 0.02832863
000300 4f 9d aa 3d 83 c2 c3 3c 24 33 9a bd 6a 26 b3 3d
       0.083307855 0.023896461 -0.075292856 0.08747561
000310 bd 27 97 bd eb 2d d0 bd 52 d0 db bd 59 c8 06 be
       -0.07380626 -0.10165008 -0.10733093 -0.13162364
000320 6f 9e 5f bc 76 eb 1b 3d b5 85 63 3e 5e fa d3 bd
       -0.013648613 0.03806635 0.22218974 -0.10350488
000330 31 47 53 be d2 1f 2d be fa 27 80 3e f0 6c 30 bd
       -0.20632626 -0.1690667 0.250305 -0.04307264
000340 0c c4 16 be c4 c6 99 bd 78 69 a8 3b 3f 29 3b 3e
       -0.14723223 -0.07508615 0.005139526 0.18277453
000350 73 d8 18 3e eb ed 88 3c 27 9a 44 be bb 2a 3a be
       0.14926319 0.01671501 -0.1919943 -0.18180363
000360 13 c1 e6 bc 15 09 f5 bc 48 38 86 3c b5 31 f4 3d
       -0.028168237 -0.029911557 0.016384259 0.11923543
000370 82 3b 38 3d 17 32 76 bd ca 29 9e bd 0d 66 32 be
       0.044978626 -0.060106363 -0.077228144 -0.17421742
000380 ca d8 70 bd 99 fe 93 3d c6 8c ff 3d d1 f8 97 be
       -0.058800496 0.07226295 0.12478022 -0.2968202
000390 94 98 cf 3d 6d c9 bf bc 0a 9f 25 bd 7a d1 c9 bd
       0.10136524 -0.023411477 -0.040434875 -0.098544076
0003a0 15 3d b2 3d f6 e8 9a b9 24 6e ed bd a6 ba 92 3d
       0.08703057 -0.00029546738 -0.11593273 0.071645066
0003b0 57 5f f6 bd c2 b6 cc bd 41 68 15 be 3b 37 43 be
       -0.120299034 -0.09995796 -0.14590551 -0.19064038
0003c0 5d 42 3c be da 08 df bd ea d3 f6 3d bc 72 1b be
       -0.1838469 -0.1089036 0.12052138 -0.15180486
0003d0 05 99 26 bd b2 8b 42 3d fa d1 fd 3d 31 63 c4 ba
       -0.040673275 0.047496505 0.123935655 -0.0014983175
0003e0 74 25 20 bd c5 db 21 be 3f c6 90 3e 13 c5 f1 3d
       -0.039098218 -0.15806492 0.2827625 0.11805167
0003f0 34 b1 7f be 53 70 b8 bc 3f bc c9 bd 30 d4 81 3e
       -0.24969941 -0.022514498 -0.09850358 0.253572

InConv.bias f4 [8]
000000 b5 91 96 3e 69 67 02 3e 2c 4b 4f be 8a 4b c4 3c
       0.2940804 0.1273476 -0.2024352 0.023961801
000010 e2 2f a9 3e 26 3d 8d bd 19 87 ae 3d 6e 4e 09 bc
       0.33044344 -0.06896429 0.085218616 -0.0083805155

InConv.weight f4 [8, 3, 3, 3]
000000 8e 33 85 3f 90 ec a2 be 21 f8 b4 be 5b 2f 0c 40
       1.0406358 -0.31821108 -0.35345557 2.1903903
000010 12 b6 b0 bf 13 8c 16 3e 44 a1 c5 bf fe e5 30 3e
       -1.3805563 0.14701872 -1.5439839 0.17275235
000020 ce 90 24 3f 35 f3 a7 3f 08 d4 b1 bf 85 c4 15 bf
       0.64283454 1.3121096 -1.3892832 -0.5850299
000030 8b 67 ca 3f a0 86 1c c0 9b e1 f5 3e 24 9f ef bf
       1.5812849 -2.4457169 0.48023686 -1.8720441
000040 72 a8 06 3d 98 04 0d 40 28 b4 1b 3f dd 82 91 be
       0.032875486 2.2034054 0.6082177 -0.28420153
000050 06 59 b3 bd 55 b7 02 40 31 fd d4 bf 74 00 0e be
       -0.08757214 2.0424397 -1.6639768 -0.1386736
000060 db 89 01 bf 18 b1 8c be 16 14 e0 3e b7 98 20 3f
       -0.50600976 -0.27478862 0.43765324 0.62733024
000070 d6 ef 78 be 78 36 87 3e 2c 9c 86 be 9f 58 a3 be
       -0.2431024 0.26408744 -0.26291025 -0.3190355
000080 5f a1 18 3e df d2 5b bd 58 fc 22 3e 2c 8a 2d be
       0.14905308 -0.0536679 0.15916574 -0.1694724
000090 7b 7b 58 be e8 37 69 bf 91 4a 27 3e 08 64 4e bf
       -0.21140854 -0.9110093 0.16337039 -0.80621386
0000a0 49 dd 25 be d0 3f 9e 3f 66 c0 6d bf 3b 5c b6 3e
       -0.16197695 1.2363224 -0.928717 0.3561724
0000b0 7e 27 8d 3f fe 21 86 3e c1 f5 f3 be 45 2c d5 3c
       1.1027677 0.2619781 -0.47648433 0.026022086
0000c0 23 78 b3 bf 60 33 76 3c ad 57 b7 3f c6 c5 ca bf
       -1.4021038 0.015026897 1.4323632 -1.5841606
0000d0 79 ce f9 3e ab 2e 7e 3f c2 c9 b8 be 4e 0e 5f be
       0.4879034 0.9928996 -0.3609143 -0.217828
0000e0 1c 4c 3b be 9a fc 54 3e 55 6d 3d be be 26 07 be
       -0.18290752 0.20799485 -0.18498738 -0.13198373
0000f0 09 50 47 3f 7d d1 f9 3e 32 15 36 3e 1b 0b da be
       0.778565 0.4879264 0.17781523 -0.42586598
000100 24 05 c1 be ad 87 82 bf 97 b1 4d 3f 02 e9 f5 3e
       -0.37699234 -1.0197655 0.80349106 0.48029333
000110 01 73 26 bf 30 bb b1 3f ca 81 96 3f a7 3a 7b be
       -0.6501923 1.388525 1.1758358 -0.24534093
000120 ea 3d 23 3f 29 d4 46 3f 5a 7b c8 3f 9b 88 1b bf
       0.6376635 0.7766748 1.5662644 -0.6075532
000130 87 56 1e bf 09 ca 14 3f 62 0a 11 c0 8c 96 e5 bf
       -0.6185078 0.5812078 -2.2662587 -1.7936568
000140 d6 72 39 3e e3 f0 87 be 3d 26 55 bf 23 80 8c 3e
       0.18110213 -0.2655097 -0.8326147 0.2744151
000150 d9 22 11 bf be ce c8 bf 4c cd 67 3f 88 db 2a be
       -0.566938 -1.5688093 0.90547633 -0.16685307
000160 5e 7d 2c bf ed 43 54 3f 1d ca ab 3f f2 5d d3 3e
       -0.67378795 0.82916147 1.3421055 0.41282612
000170 8c 50 e8 be 7a 61 c1 3f 22 22 e3 3e 28 06 a6 3e
       -0.45373952 1.5107872 0.4436198 0.32426572
000180 9c 60 3d 3e 47 37 73 3e 5e 1b 5d bf 49 21 7c be
       0.18493885 0.23751555 -0.86369884 -0.24622072
000190 1c f6 64 bf 7a 0d 85 bb bc 7a 83 bd 31 0e 5d bf
       -0.89438033 -0.0040604444 -0.06419894 -0.8634978
0001a0 63 eb 1a 3f 3f 44 89 3e c8 ab c0 3e a5 1c 03 3f
       0.6051542 0.2680988 0.3763106 0.51215583
0001b0 c0 32 dc be 71 b5 e8 3e d4 2a 90 3e 22 74 9e be
       -0.4300747 0.4545093 0.28157675 -0.30947977
0001c0 18 54 16 bf 6a bb b8 3f bf 9f d2 3f b6 52 c3 bf
       -0.58722067 1.4432194 1.6455001 -1.5259616
0001d0 63 e5 2f bf 75 28 81 bf 97 7e ba be 94 af 4f 3f
       -0.6870939 -1.0090472 -0.36424705 0.81127286
0001e0 6d 78 04 be 47 61 e9 bf 4a fc 99 3f ab 06 51 40
       -0.12936564 -1.8232812 1.2030118 3.266032
0001f0 2c cf f6 bf f8 d3 06 bf 77 1a 9d bd c9 bc 8d 3e
       -1.9281974 -0.5266719 -0.076710634 0.27683094
000200 f8 7f 1f be b8 35 81 3d 46 af 60 bf b0 7d 86 3f
       -0.1557616 0.06309074 -0.87767446 1.0507107
000210 39 a3 f5 3f ee 32 cb bf c5 96 dd be 0b 8e 00 3f
       1.9190437 -1.5874918 -0.4327909 0.5021674
000220 24 16 70 3e ab 32 b8 3e b1 00 4d bd f5 99 95 be
       0.23445946 0.35976157 -0.050049488 -0.29219022
000230 7d 09 44 be 1c 0b d1 be 2d 8b 4f 3e e0 31 bc be
       -0.19144244 -0.40828788 0.20267935 -0.36756802
000240 a7 16 26 3e 25 ce 47 bf 04 16 30 be a6 64 c7 be
       0.16219579 -0.78048927 -0.17195898 -0.38943976
000250 cf 70 57 bf bb 60 24 bf 24 02 76 3f c1 6a c8 3f
       -0.8415651 -0.642101 0.96097016 1.5657579
000260 09 94 70 3e 33 16 55 bf 95 61 9d bf 63 c2 9f be
       0.23493971 -0.83237 -1.2295405 -0.31202993
000270 f1 bb 32 bf 53 3a 49 bf 79 ba 91 be 69 f5 0d 3f
       -0.69818026 -0.7860462 -0.2846258 0.5545259
000280 0f 01 05 40 7f 4f 61 3f d2 f0 0b bf bd fa 93 bf
       2.0781896 0.88011926 -0.5466434 -1.1560894
000290 b4 1b 25 be bc 69 12 bf 38 47 f4 be 16 b8 9a be
       -0.16123849 -0.5719259 -0.47710586 -0.3021857
0002a0 0a a5 c7 3e 1f 00 75 3f 68 e6 4e 3f fc 48 b6 3d
       0.38993102 0.9570331 0.8082032 0.089006394
0002b0 ae eb 1c bd 8e b4 f3 3e ef e9 06 3e 4d 78 38 3e
       -0.0383107 0.4759869 0.13175176 0.18014641
0002c0 3b 04 79 be 7d 95 04 be a1 5c be be cc 7a 27 be
       -0.2431802 -0.1294765 -0.37180045 -0.16355437
0002d0 5e 12 ff 3e bb 8b 1d 3f 1f b8 87 ba fa ec b4 3e
       0.498187 0.61541337 -0.0010354555 0.3533705
0002e0 03 3f 02 3f d8 b5 33 bf 12 7b 25 bf 5d 4e 47 bf
       0.508774 -0.70199347 -0.64640915 -0.7785395
0002f0 d4 be 42 bf 33 b3 a0 3f cd 6b a0 3f 57 98 70 3f
       -0.7607243 1.2554687 1.2532898 0.9398245
000300 19 ae 10 3f 25 c2 bc 3f 37 cb 31 3f 51 7b 00 c0
       0.5651565 1.4746748 0.69450706 -2.0075266
000310 2e 5f 35 c0 1a 64 bb bf 8b 59 1e be f0 b6 79 bf
       -2.8339343 -1.4639924 -0.15463845 -0.97544765
000320 46 0d 29 bf 7c 8f 04 3f 22 1c 63 3f a7 75 52 bd
       -0.6603588 0.5178144 0.887148 -0.051381733
000330 fa bb 5a 3f 8c de 89 be 9f c8 15 3e 7b a9 4a bf
       0.8544308 -0.26927602 0.14627312 -0.79164857
000340 f6 18 5e bf e8 f8 13 3d db b1 af be d2 f2 16 3f
       -0.8675684 0.036126047 -0.3431538 0.58964264
000350 1e 4a c1 3d 90 de 36 3d d9 1c 12 be f7 7b 3f 3f
       0.09437965 0.044645846 -0.14268817 0.7479853

ResPart.stack0_0.Block.0.bias f4 [8]
000000 f8 b5 b2 3f ea 65 07 3f 32 3d 3d 3e 06 4f 3e bd
       1.3961782 0.52889884 0.18480375 -0.04646208
000010 62 be a5 3f cf 6c b7 bd 9e bc 60 bc 68 94 ac 3d
       1.2948725 -0.089563005 -0.013716845 0.08426744

ResPart.stack0_0.Block.0.running_mean f4 [8]
000000 6e 13 a1 3e 9a 9a 04 3e 45 2c 9a 3d 9c 88 1a 3d
       0.31460136 0.12949601 0.07527975 0.037727937
000010 77 0a 91 3e 2f 8b 04 bd 78 78 a2 3d 69 db a5 3d
       0.28328297 -0.0323593 0.07933134 0.0809849

ResPart.stack0_0.Block.0.running_var f4 [8]
000000 05 14 1c 41 31 50 1c 41 fc f7 19 40 b3 de 23 40
       9.754888 9.769578 2.4057608 2.5604675
000010 63 54 19 41 96 7a 1c 41 e2 c7 52 40 ce 39 d1 40
       9.583102 9.779928 3.2934499 6.538306

ResPart.stack0_0.Block.0.weight f4 [8]
000000 40 d0 e1 3f c4 af c2 3f 92 21 11 3f 53 e5 24 3f
       1.7641678 1.520989 0.5669185 0.6441242
000010 6d 94 e6 3f 67 5a bb 3f 19 44 31 3f 56 34 93 3f
       1.8014046 1.4636964 0.69244534 1.1500347

ResPart.stack0_0.Block.2.bias f4 [8]
000000 e7 c3 8f 3c 1b 08 18 3d 0f 7f 85 bd f2 20 0f 3b
       0.017549468 0.037117105 -0.06518375 0.0021839705
000010 83 54 0b bd 28 b4 6f bd 7e de 01 bd c7 4b a4 bd
       -0.034016144 -0.05852142 -0.031706326 -0.08022266

ResPart.stack0_0.Block.2.weight f4 [8, 8, 1, 1]
000000 36 5d a4 bf 8d 57 38 bf 8e 0c f9 be 4b 7b ea be
       -1.2840946 -0.7200859 -0.4864239 -0.4579719
000010 c7 6a b4 bf 01 07 a9 3d d3 cb cd 3e f1 b1 b3 3d
       -1.4095086 0.08253289 0.40194568 0.08774174
000020 30 fa 41 bf 03 42 cb 3e 40 61 41 3d b3 d6 1e 3d
       -0.7577238 0.396988 0.047211885 0.038778972
000030 0a 78 05 bf 18 b1 da 3f 9c ce 5d 3f 64 ca 6d 3f
       -0.5213629 1.7085295 0.86643386 0.9288695
000040 9f 3c de 3f fb 3b 66 3d f9 63 13 3d 1f 10 a7 3d
       1.736225 0.056209546 0.035984013 0.08157372
000050 98 d3 dd bf cf c1 06 3f 3d 20 6d 3e bd bc fe be
       -1.7330198 0.5263948 0.23156829 -0.4975337
000060 ac 84 35 bf 4d 39 8f 3f c5 a9 2d be fd 5f 29 bf
       -0.70905566 1.1189362 -0.16959293 -0.6616209
000070 4e c9 7b bf 82 67 df be 9a 6b 02 bf 30 ac f7 be
       -0.9835404 -0.43633658 -0.50945437 -0.48373556
000080 8c a2 10 be 84 2f f4 bf 44 d9 a1 3e ea fc b4 be
       -0.14124507 -1.9077001 0.31611073 -0.35349208
000090 03 f0 d7 bd f1 c6 a1 3f 59 8a 21 3e 28 ed 0b 3f
       -0.105438255 1.2638837 0.15775432 0.54658747
0000a0 a1 ff 1a 3d 41 cb 46 bd 5a 04 98 bf d5 7d b4 be
       0.037841443 -0.04853368 -1.1876328 -0.35252252
0000b0 19 a6 01 be a8 14 99 3e 01 c4 15 bf 8a 7d 9f 3f
       -0.12661017 0.29898572 -0.58502203 1.2460186
0000c0 1b 8b b2 3f 3b bf 13 3e 32 93 8c be 6c 06 66 3f
       1.3948702 0.14428417 -0.2745605 0.8985355
0000d0 6f 21 9a 3f a0 99 64 be 2e 0c 4d be ff aa 36 3d
       1.2041453 -0.22324228 -0.20024177 0.04459667
0000e0 4a 05 b0 bf 46 89 2b bf 02 ac a9 3e 95 fe df be
       -1.3751614 -0.6700634 0.33139044 -0.43748918
0000f0 54 2b ad 3f b4 f6 7d be dc e5 c3 3e 2c ec 5a 3d
       1.3528848 -0.24801141 0.38261306 0.053447887

ResPart.stack0_0.Block.3.bias f4 [8]
000000 d7 d0 16 3e 7d ee cf 3f 92 a5 6a bc 90 fa 81 3e
       0.14728104 1.6244656 -0.014321702 0.25386477
000010 08 10 18 3f aa 58 37 bc ff bb 08 3f aa 79 0d 3f
       0.5939946 -0.011190573 0.5341186 0.5526377

ResPart.stack0_0.Block.3.running_mean f4 [8]
000000 ef 54 97 c0 53 4e 9a be fa 26 9d 3e 3a 6a 17 c0
       -4.729118 -0.30137882 0.306938 -2.3658586
000010 fc 31 94 bf 3f 03 e4 bd ea 9f 81 40 93 4c 65 bf
       -1.1577754 -0.11133432 4.0507708 -0.8956997

ResPart.stack0_0.Block.3.running_var f4 [8]
000000 de 0a e1 40 7a 49 76 40 ac f3 2c 41 e7 af 94 40
       7.0325766 3.8482347 10.80949 4.6464725
000010 e2 af 89 40 5a 7d 97 3f 0e c7 d0 40 ad 34 f1 40
       4.30272 1.1835129 6.5242987 7.53768

ResPart.stack0_0.Block.3.weight f4 [8]
000000 a3 2a eb 3f a8 20 7c 3f 46 d7 ee 3f 4c 72 dc 3f
       1.8372387 0.9848733 1.8659446 1.7222381
000010 99 b0 b3 3f 5a 22 6a 3f 85 ca 9e 3f 0c 76 b1 3f
       1.4038268 0.91458666 1.2405554 1.386415

ResPart.stack0_0.Block.5.bias f4 [8]
000000 97 a9 43 bc d1 5f c7 3c 0d 8f cc 3c 08 a2 e5 bc
       -0.011942289 0.024337681 0.024970556 -0.028031364
000010 be 3d dd 3c c3 51 56 bb c2 87 17 bc c7 c3 e3 bc
       0.02700698 -0.0032702542 -0.009248676 -0.027803315

ResPart.stack0_0.Block.5.weight f4 [8, 8, 3, 3]
000000 07 f7 e7 be 78 23 19 bf db f5 f1 be 07 b7 0e be
       -0.45305654 -0.59819746 -0.47257885 -0.13937007
000010 86 e1 a2 be 85 cb 13 bf b2 77 88 be d8 44 b3 bd
       -0.31812686 -0.5773242 -0.2665382 -0.08753365
000020 d8 c5 24 bf 34 cc 29 3f fe 2c 33 3f c2 d5 b1 3e
       -0.64364386 0.66327214 0.6999053 0.34733397
000030 16 f8 e3 3d ac 0c cf 3b 87 ca 70 3d ec 65 dc 3b
       0.11131303 0.0063186493 0.058786895 0.006726017
000040 91 06 64 bd 5b 8e 48 bd a6 09 a7 3e d8 e8 c4 3e
       -0.055670325 -0.048963886 0.3262455 0.38458896
000050 44 58 20 3c 23 6b 0c 3c 30 f3 41 3f 23 32 20 3e
       0.009786669 0.008570465 0.757617 0.15644126
000060 8d 12 79 be ab 3e 08 bf 82 a9 fd bd b0 6c b7 3e
       -0.24323483 -0.53220624 -0.12385847 0.3582511
000070 d7 f7 d9 3e 50 e4 80 3e f5 63 13 3e 8f 90 f2 bb
       0.425719 0.2517419 0.143936 -0.0074024866
000080 00 df 44 bd 65 fa 10 bf 93 da 36 bf eb 30 fe be
       -0.048064232 -0.5663207 -0.7142727 -0.49646696
000090 fa 55 a4 be d1 31 1b bd 70 58 35 3f d1 9b 04 bf
       -0.32096845 -0.037889306 0.7083807 -0.51800257
0000a0 7f 01 7b be 00 4a 01 3f 37 f8 fa be 7c 6d 5d bd
       -0.2451229 0.5050354 -0.49017498 -0.05405949
0000b0 aa 1c 0e 3f ea 85 a2 bd e6 23 69 3e fd 38 8a bd
       0.5551249 -0.07935698 0.227676 -0.06749151
0000c0 0b 94 45 3e 07 99 90 3e 92 ca c2 3e 02 34 02 3e
       0.19294755 0.2824175 0.38045174 0.12715152
0000d0 37 08 3b 3e 61 08 e2 bc b6 4e 56 be 9d 26 20 bf
       0.18264852 -0.027591886 -0.20928463 -0.6255892
0000e0 43 b8 7e be 20 c7 45 be 7d 49 da be 86 17 5b be
       -0.24874978 -0.19314241 -0.42634192 -0.21395692
0000f0 53 4a 87 bf 8c 59 c2 bf 6b f1 87 bf 69 7f ee 3d
       -1.0569557 -1.5183578 -1.062055 0.11645395
000100 91 13 ba 3e 9a 45 48 3f 00 0b 1c bd 87 57 02 3e
       0.36343053 0.78231204 -0.038096428 0.12728702
000110 a6 47 b2 bd 8c c9 1f bd 75 9f fe be 13 b5 db be
       -0.08705072 -0.03901057 -0.4973103 -0.42911586
000120 98 8c ae bc 25 3f 2b 3e cc a7 28 be 15 f4 33 bf
       -0.021307275 0.16723306 -0.1647026 -0.70294315
000130 1c c5 8b 3f d3 80 82 be 2f 5a c2 be 9e a8 26 3f
       1.0919528 -0.2548891 -0.3795943 0.6510104
000140 75 8b 73 be 5c 73 09 bf 7e 65 41 3f dd 10 24 3e
       -0.23783667 -0.5369165 0.7554549 0.16022058
000150 4e c2 4e bf 5d 04 55 3f b8 75 8f be 5c f6 9a be
       -0.80765235 0.8320978 -0.280195 -0.30266082
000160 42 ac 17 3f 62 2a ab 3e 44 4d 28 be 78 80 7b 3d
       0.5924722 0.33430773 -0.16435724 0.061401814
000170 f8 f1 97 be b6 b1 c2 3d e6 aa a1 be 47 cc bd be
       -0.29676795 0.09506552 -0.31575698 -0.37069914
000180 5c c2 ee 3e cf 8c a5 be d0 49 bc bd 2b ea fe be
       0.4663266 -0.3233399 -0.09193766 -0.4978803
000190 ab a8 cf 3e ef ef 87 3e 66 2c 4d bf 24 8a ba 3c
       0.4055837 0.26550242 -0.8014587 0.022770949
0001a0 92 92 03 bf 43 70 0e bf c3 09 ed be ca b8 c1 be
       -0.51395524 -0.5564005 -0.4629651 -0.37836295
0001b0 5b 16 a7 3e d0 b2 96 3d ab 2d 7b 3d 11 ab ca 3e
       0.32634243 0.073583245 0.06132285 0.39583638
0001c0 3a df c1 bc e7 e1 73 be bd 69 dc 3e b2 db d4 bd
       -0.023666013 -0.23816644 0.43049422 -0.10393466
0001d0 92 d5 55 bf 8a 7d b3 bc 14 c7 c6 3e d0 3d c5 3d
       -0.8352901 -0.021910448 0.3882376 0.096309304
0001e0 ec 12 1b 3e 27 3f 2d 3d a6 34 d2 bd a3 79 2e 3e
       0.15143937 0.042296555 -0.10263948 0.17038588
0001f0 44 95 6d 3d 29 67 9d 3e 44 3a 53 bd 68 11 f3 bd
       0.05800368 0.30742767 -0.05156924 -0.11868554
000200 b1 ca f4 3c 54 78 03 3f 50 a2 01 be 12 9d 9a 3e
       0.029881807 0.5135548 -0.12659574 0.3019796
000210 9f 4a 80 3e 57 f7 63 3e b8 39 a5 bc fa ec fc 3e
       0.2505693 0.22262321 -0.020169124 0.4939955
000220 2b a4 01 bf 69 7e 61 bd 64 bc bd bd 2c e0 8c be
       -0.50641125 -0.055052195 -0.09264448 -0.2751478
000230 47 6c f5 bd 93 62 97 be dc 81 2b be 17 03 39 be
       -0.11983543 -0.29567394 -0.16748756 -0.18067585
000240 81 a5 76 3e 00 84 de 3e 2f 2a 2d 3e 61 bd 7a 3e
       0.24086572 0.43460083 0.16910623 0.24486305
000250 da 20 d7 3e 97 1f cb bc 9b 07 25 be a0 f3 88 3e
       0.4201725 -0.024795337 -0.16116183 0.2674837
000260 04 53 2e be 98 a4 59 bf de 59 55 bf 09 6b 67 bf
       -0.17023855 -0.85016775 -0.8334025 -0.903977
000270 3e a4 da be 22 02 51 bd 36 c7 71 be bd e6 31 bd
       -0.42703432 -0.051027425 -0.23611149 -0.04343294
000280 f9 59 d1 3e 1e df c6 3e c9 9b 88 bf e3 4b a3 bf
       0.40888956 0.388421 -1.0672542 -1.2757534
000290 9b 60 1d bf f7 7d 4e bf e5 15 3d bf a6 af 67 be
       -0.61475533 -0.8066096 -0.73861533 -0.22625598
0002a0 a0 fd 94 be ac 55 42 be 91 f5 d9 bb f7 d6 ee 3d
       -0.2909975 -0.18977994 -0.0066515882 0.11662095
0002b0 2c 7d 57 be 3b 47 a3 be 93 c8 94 3e d0 a1 6e 3e
       -0.21043843 -0.31890282 0.29059276 0.23303914
0002c0 c7 82 a9 3e 96 38 9a 3e 82 12 80 3e db 3d a7 3e
       0.33107588 0.30121297 0.2501412 0.3266438
0002d0 1e 19 fd be 89 32 4a be 9b 6a 48 3e d0 e8 70 be
       -0.49433225 -0.1974584 0.19571917 -0.23526311
0002e0 cf 04 80 3d d6 45 09 3e 3d 84 01 3f 3a fe d2 3e
       0.06250917 0.13405547 0.50592405 0.41209584
0002f0 51 bb ad 3e 34 98 28 bf ae 37 4b bf 4f f7 29 bf
       0.33931974 -0.65857244 -0.79381835 -0.6639299
000300 56 a8 42 be 38 e6 e6 bd c2 f3 e2 bd 33 45 8c bb
       -0.19009528 -0.112743795 -0.11081649 -0.00428071
000310 33 43 81 bd 02 6c 98 bd 42 67 4e be 11 55 e5 3e
       -0.06311645 -0.07442476 -0.20156577 0.44791463
000320 c9 00 7b 3c e5 99 2d 3c 43 43 1c 3f ab dc 20 3e
       0.015320011 0.010595773 0.61040133 0.15709178
000330 17 9d 51 3e 77 cf 06 3f 9a 20 f7 3e 96 be 60 bf
       0.20470081 0.52660316 0.4826706 -0.8779081
000340 4c 7e 3a bf be 9f 03 bf ba c2 16 bf 33 ed ee be
       -0.72848964 -0.5141562 -0.5889088 -0.46665344
000350 f6 e2 f0 be 0b 0a 62 be ce b5 cd bd c3 66 a1 3d
       -0.47048157 -0.22074144 -0.10044442 0.07880928
000360 1c 8d d4 bd bc 81 23 3d 43 a0 25 3e b2 f0 48 be
       -0.10378477 0.039918646 0.16174416 -0.19623068
000370 49 b7 ba be 24 dc 2d be c1 a9 af 3d c3 6b 03 bc
       -0.3646796 -0.16978508 0.085773 -0.008021298
000380 0f 76 ac bd 0a 32 39 be 84 e2 13 bf 4f 79 8e be
       -0.084209554 -0.18085495 -0.5776751 -0.27826926
000390 4d b7 75 3f 34 77 da 3d 0e 65 85 3d 1e 7e ce bd
       0.9598282 0.106672674 0.06513415 -0.10082649
0003a0 2a 2c 99 be 18 c2 0d bf e8 f3 ab be d1 23 dd be
       -0.29916507 -0.5537429 -0.33584523 -0.43191388
0003b0 71 ab 84 bd 00 22 08 3f b7 29 13 3f 26 58 0d 3f
       -0.06478012 0.5317688 0.57485527 0.5521263
0003c0 72 dc b8 be e0 87 3a bf 9b 86 ba be f1 40 02 3e
       -0.36105686 -0.7286358 -0.3643082 0.12720086
0003d0 c7 9f e8 3e a8 37 e7 3e 8f 35 65 bf 18 63 5f bf
       0.454344 0.4515965 -0.8953485 -0.8726058
0003e0 06 84 b7 be 17 45 c1 bc 56 fc b4 3e 6a c5 14 3f
       -0.35842913 -0.023592515 0.35348767 0.5811373
0003f0 c8 aa bb be cb b0 6a be b5 23 9b be bc 97 23 3f
       -0.36653733 -0.22919004 -0.3030068 0.63903403

ResPart.stack0_0.Block.6.bias f4 [8]
000000 c6 fc 2c 3f ae 83 8a 3f 2f 13 11 be 4c 60 e9 be
       0.675732 1.0821435 -0.14167474 -0.4558128
000010 98 45 84 3e 8d 62 c9 3d c1 32 46 be e6 8d ac 3f
       0.25834346 0.0983325 -0.19355299 1.3480804

ResPart.stack0_0.Block.6.running_mean f4 [8]
000000 eb bb 1e c0 e9 cc 2e bf 27 9a d4 c0 cb 61 1f c0
       -2.4802196 -0.6828142 -6.6438174 -2.4903438
000010 af 7b a3 3f ba b8 88 3f 4d a8 0c 3f 9b 29 b5 3f
       1.277212 1.0681374 0.54944307 1.4153322

ResPart.stack0_0.Block.6.running_var f4 [8]
000000 16 ce 97 41 08 18 93 41 fc 5c df 41 9f 12 47 41
       18.975628 18.386734 27.920403 12.442046
000010 e9 79 30 41 26 0f c3 41 bf bf 53 41 fe eb 5a 41
       11.029763 24.382397 13.234313 13.682615

ResPart.stack0_0.Block.6.weight f4 [8]
000000 da 46 d6 3f 3b ae bc 3f f9 4f 15 40 57 da 07 40
       1.6740372 1.4740671 2.3330061 2.1227014
000010 dc 41 d7 3f 39 c0 04 40 a6 6c dc 3f 94 8c 92 3f
       1.6816974 2.0742323 1.7220657 1.1449151

ResPart.stack0_0.Block.8.bias f4 [32]
000000 88 7a 16 be ba dc 7b bc b5 0b ae be c0 c5 a3 3e
       -0.1469518 -0.0153724495 -0.33993307 0.3198681
000010 82 38 54 bf c2 4f 70 3e 15 49 62 bd 56 b1 a7 3e
       -0.82898724 0.23467925 -0.055245478 0.32752484
000020 6d 61 8c 3e 56 19 68 be 73 39 cc 3e fc 68 30 3e
       0.2741808 -0.22665915 0.3988758 0.17227548
000030 bd e5 05 bf 12 48 f1 3e 43 31 d8 3f ec 5f 40 be
       -0.5230368 0.47125298 1.6890033 -0.18786591
000040 b5 b5 26 3f b9 02 88 3e c0 45 2d be fd 5b 17 3e
       0.6512101 0.26564577 -0.16921139 0.14781184
000050 0a 5e 67 3d 69 e6 23 3f 3c 23 6e be 90 25 9d bf
       0.056486167 0.64023453 -0.23255628 -1.2277088
000060 ce 52 31 bd 48 46 a2 3e 03 60 03 3e 91 52 29 bf
       -0.04329186 0.31694245 0.12829594 -0.6614161
000070 15 f3 c6 3e eb b0 0b 3f 57 a9 8b 3e fb 82 1e 3e
       0.38857332 0.5456683 0.27277634 0.15479653

ResPart.stack0_0.Block.8.weight f4 [32, 8, 1, 1]
000000 a4 d9 3f bf 82 f4 bb bd a2 5e f9 3e 73 b5 03 bf
       -0.7494147 -0.091774955 0.48705012 -0.51448745
000010 17 33 6a bd 1a 14 b1 3e 01 65 16 3f fc 31 c2 3e
       -0.05717763 0.3458565 0.5874787 0.3792876
000020 ee 4c 4a 3f 62 3a 15 bd f1 79 33 bf 16 a2 f3 be
       0.79023635 -0.03643263 -0.7010794 -0.475846
000030 45 63 ae be fa 34 60 3e 4e b0 5b 3e 7b ef d0 3c
       -0.34060112 0.21895209 0.21453974 0.025504818
000040 23 1b 0a bf 4b dd cb 3d 8b 10 ab be 2f 09 72 3e
       -0.5394766 0.09954318 -0.3341106 0.23636316
000050 9b e5 82 be 05 e6 87 3f 02 1d 56 3f 7c 92 6a 3d
       -0.255658 1.0617071 0.8363801 0.057268605
000060 dc cc 39 bf ac 9b b6 3e 34 29 38 bf 84 ff f5 be
       -0.72578216 0.35665643 -0.7193787 -0.48046505
000070 c5 2b dc be 38 b7 30 bd 5d 29 01 3f 1d 49 0e 3f
       -0.43002144 -0.04314348 0.5045374 0.5558031
000080 ad ab d0 3f c5 e2 25 bf 7f 7e 0f bd a1 ce 8e be
       1.6302391 -0.6479915 -0.035032745 -0.2789202
000090 a4 4e 10 3e fb 16 0d bf a8 4e 55 3e 55 23 74 3f
       0.14092499 -0.5511319 0.20830786 0.9536641
0000a0 87 52 81 3e 72 95 9f bf d7 83 88 3e 87 52 5f 3c
       0.25258276 -1.2467482 0.26663086 0.013630516
0000b0 e4 1e 93 3f 45 af 18 3e 37 25 84 bc 5f 7a 59 be
       1.1493802 0.1491061 -0.016131027 -0.21238087
0000c0 37 e1 f6 be 6a 5b 31 3f 93 83 46 3f a8 1a d4 be
       -0.482187 0.6928011 0.77544516 -0.41426587
0000d0 d7 a5 94 3d f9 88 04 3f 81 98 32 bf 5f c8 31 bf
       0.07258194 0.51771504 -0.6976395 -0.6944637
0000e0 3c 37 11 bf 9a d3 c4 bd 32 fb 11 bf 3b 70 09 bf
       -0.56724906 -0.09610672 -0.5702392 -0.53686875
0000f0 7c a8 00 be 02 9a 98 be 64 14 12 bf ce 3e 81 3f
       -0.12564272 -0.29805 -0.57062364 1.0097291
000100 c2 8c 98 3e ab e3 39 3e 9e 21 72 be 6f ac a7 be
       0.2979489 0.18153255 -0.23645636 -0.32748744
000110 e8 ec bd bf 91 76 4d 3f 92 e9 17 bf 4b 7a aa 3e
       -1.4837923 0.8025904 -0.59340775 0.33296427
000120 92 a2 50 3f d4 cf 5a 3e a1 23 15 3f cd 82 3d 3f
       0.8149806 0.21368343 0.5825749 0.7402771
000130 b8 e4 83 bf 31 b1 56 be 6e 58 4a 3f 2d b6 50 bf
       -1.0304174 -0.2096603 0.79041183 -0.8152798
000140 6c 6c 3d bf 8a 50 57 3e 76 30 46 bf cb 3d 91 bd
       -0.73993564 0.21026817 -0.77417696 -0.07091864
000150 42 ca 30 3e e3 1f 9d be f1 76 9b bd d2 9b b9 3e
       0.17264655 -0.3068839 -0.07591046 0.36251694
000160 b8 26 4d 3f 40 64 7d 3e 27 e3 14 bf b7 f9 52 bf
       0.80137205 0.24745274 -0.58159107 -0.82412285
000170 0c 5a 6a be ff 59 cf bd 63 80 fb bd 55 23 f9 be
       -0.22885913 -0.10124587 -0.12280347 -0.4865977
000180 04 23 48 3e 8d 8a c8 3d f7 5d d3 3e 6c 07 18 bd
       0.19544607 0.097920515 0.41282627 -0.037116453
000190 22 5a 01 3f 40 ea 8e be e1 d2 8a be da 1e 3f 3e
       0.50528157 -0.27913094 -0.27114013 0.18664113
0001a0 8d 1d f9 bd c3 81 24 bd f9 06 ba 3e 98 52 c9 be
       -0.121638395 -0.040162813 0.36333445 -0.39320827
0001b0 72 32 3b 3e 00 35 73 bc 31 37 66 bf 65 b2 c4 be
       0.18280962 -0.014844179 -0.89927965 -0.38417354
0001c0 e6 bf 22 be c1 58 ae bf 76 04 01 bf ec 4a 84 3e
       -0.15893516 -1.3620836 -0.5039743 0.2583841
0001d0 8b e1 38 bf ec dd 8b 3d e4 4e b4 3e ec 9b 75 bf
       -0.7221915 0.068294376 0.3521644 -0.9594104
0001e0 d0 6a 0a 3d 80 c1 d5 be 02 49 fe bd 03 90 cd bf
       0.03379327 -0.4174919 -0.12416269 -1.6059574
0001f0 fe 27 98 3e 4e df 12 bf 42 48 84 bf d9 7c 06 40
       0.29718012 -0.57371986 -1.0334551 2.10137
000200 d3 fc a5 3e 32 4a f2 3e e2 97 23 bf dc e1 54 bf
       0.32419452 0.47322232 -0.6390363 -0.83157134
000210 99 65 cd 3e 9b 29 19 bf 62 56 38 bf 2d 35 01 bf
       0.40116575 -0.5982911 -0.7200681 -0.50471765
000220 e7 3c a7 be 7e 01 02 be 7e bf 6e 3d 95 71 2c 3e
       -0.32663652 -0.12695882 0.05828809 0.16840203
000230 52 7a 91 be 74 51 9f bd 67 37 d6 3d 6c 6e 03 3e
       -0.28413635 -0.07779208 0.10459786 0.12835091
000240 36 be 41 3e 3a 81 17 3f 1f 3b 92 3d e2 aa 2d 3f
       0.18920216 0.5918156 0.07140183 0.6783887
000250 4e 03 5c be 9d 6f b1 be bf 83 8d 3e a7 a7 41 bf
       -0.21485636 -0.34655467 0.27639577 -0.7564644
000260 68 17 32 3f 49 06 8c bf 08 8f 51 3f 7d 9c 80 3d
       0.69566965 -1.0939418 0.81858873 0.06279848
000270 d1 5d 90 bf 3d 85 1a 3f 40 c1 a7 bd 34 e2 39 3e
       -1.127863 0.60359555 -0.081911564 0.18152696
000280 2b d1 51 3e 45 f2 49 3e 1e 03 f2 bc 40 63 31 be
       0.20489947 0.19721325 -0.029542502 -0.17323017
000290 0b eb c3 bf 04 1c 96 be 0c 04 0d be 00 ca 36 3f
       -1.5306104 -0.2931825 -0.13771075 0.7140198
0002a0 b9 ba d7 3e 53 79 1c bf 54 c9 92 bd 2f 01 86 bf
       0.42134646 -0.61122626 -0.071673065 -1.0469111
0002b0 b8 04 ca bd 5b 74 28 bf 78 e3 95 bf ad d2 58 3f
       -0.09864181 -0.65802544 -1.1710043 0.84696466
0002c0 12 ff 80 3e 07 65 8a be da 0f 62 3e f5 b5 ab be
       0.25194603 -0.27030203 0.2207636 -0.3353726
0002d0 23 b0 7e 3d 4c ae ac be 90 3d 81 bd 8e 82 b2 3e
       0.062179696 -0.33726728 -0.0631057 0.3486523
0002e0 91 c9 b8 3d 02 af d5 3f bb 81 b4 3d 2c 53 85 be
       0.09022821 1.6694033 0.088138066 -0.26040018
0002f0 95 06 dc bd 63 ac b0 3e 66 1f 0d bf 49 93 e9 3e
       -0.10743443 0.3450652 -0.55126035 0.45620182
000300 5f cb b7 3e a6 c2 b1 3d 9c ce a4 3e ce 17 2e bf
       0.35897347 0.08679704 0.3218888 -0.68005073
000310 67 94 29 3e f7 c4 60 be 1b 81 83 be 73 8b a3 bd
       0.16560517 -0.21950136 -0.25684437 -0.07985582
000320 0f 64 c1 be 24 40 83 3d a6 90 84 bf d0 e2 9d 3e
       -0.3777165 0.06408718 -1.0356643 0.30837107
000330 42 f1 ec 3c 06 cd 21 3e 79 25 1c 3f ec e7 de bd
       0.028923634 0.15800866 0.6099468 -0.10884079
000340 1b 2f 40 bd 0f 3d 50 3d a6 3c 81 3c d4 d2 37 bd
       -0.046919923 0.05083948 0.01577599 -0.044878796
000350 35 dd 89 3c 88 6a 45 bd d9 9b 95 bd e5 3c 74 bc
       0.016829113 -0.0481973 -0.07305116 -0.0149070965
000360 47 06 81 3d fd 73 17 3e 8a e0 05 40 b2 71 71 3f
       0.063000254 0.1479034 2.0918298 0.9431411
000370 36 15 b3 bd 7e 01 39 bf 84 0c 15 be 81 cb de be
       -0.0874428 -0.722679 -0.14555556 -0.43514636
000380 9f 8b a3 bf 8c 49 99 3f dc b3 45 be 19 c3 cf be
       -1.2776984 1.197557 -0.19306892 -0.40578535
000390 bf b9 4f 3e 88 f8 92 be a2 3e 96 be 8a 07 05 bf
       0.202857 -0.2870524 -0.2934466 -0.5196463
0003a0 4e b1 7d bf d7 75 90 3e 68 ab 0e bf 6b 9b 1b bf
       -0.9909867 0.28214905 -0.55730295 -0.60784024
0003b0 5f d0 05 3f ce 77 4e bf 93 72 0e be 75 c8 5d 3e
       0.52271074 -0.8065156 -0.13910894 0.216585
0003c0 b7 cb 18 3f b3 0b 14 3f 26 3e 8d be cd f9 74 be
       0.59685844 0.5783035 -0.27586478 -0.23923416
0003d0 95 84 bb 3e 17 b3 a3 bf 4e 20 d8 be 45 97 1a bf
       0.3662459 -1.2789029 -0.42212147 -0.6038707
0003e0 06 ee 62 3e 8e db de bf 3d ed e4 3e 65 3c 15 3e
       0.22161111 -1.7410753 0.44712248 0.1457382
0003f0 1b 52 28 3f df 6d df 3f 15 b0 a7 3c e3 d2 ea be
       0.65750283 1.7455405 0.020469705 -0.4586402

ResPart.stack0_0.Shortcut.bias f4 [32]
000000 fb 77 f8 bd a8 16 3f bc c9 aa dc be 8e d3 da 3e
       -0.121322595 -0.0116631165 -0.4309905 0.42739528
000010 18 35 55 bf fb 75 82 3e 6f de 4b be ed 33 dc 3e
       -0.8328414 0.25480637 -0.1990907 0.43008366
000020 8b 69 32 3e a5 4c 98 be 83 7d ad 3e d3 be 87 3e
       0.17423074 -0.29745975 0.3388482 0.26512775
000030 46 c7 d8 be a5 1a cf 3e e9 e6 da 3f ab 0e 46 be
       -0.42339534 0.40450016 1.7101718 -0.19341533
000040 1f eb 17 3f 28 01 6f 3e a1 98 86 bd 6a f9 f7 3d
       0.5934314 0.23340285 -0.065720804 0.12108119
000050 24 f5 2b 3d d5 59 09 3f 6f 57 82 be 27 f2 a9 bf
       0.04198183 0.536527 -0.25457332 -1.3277024
000060 d6 3e 90 bd 9a c4 a2 3e 45 2d cf 3d d9 e6 37 bf
       -0.07043235 0.3179062 0.10116056 -0.7183662
000070 62 54 aa 3e 22 5a 24 3f dc b9 69 3e 04 c4 20 3e
       0.33267504 0.6420003 0.22824806 0.15699774

ResPart.stack0_0.Shortcut.weight f4 [32, 8, 1, 1]
000000 64 a4 27 be 71 42 c4 bd cc 8c a3 be 56 79 27 3e
       -0.16371304 -0.09582985 -0.31943357 0.1635488
000010 ab 69 a0 bc 4d b5 a5 3f 18 5e 8b bd 4a 1c 82 3f
       -0.019581636 1.2945954 -0.06805056 1.0164883
000020 a7 e6 f3 3e 52 2c 18 3e 6f bb 96 be bb b8 59 bd
       0.4763691 0.14860657 -0.29439875 -0.05315469
000030 f3 4b 01 bf 02 8f 59 bf f8 06 a2 bd ef 2b 61 3e
       -0.50506514 -0.8498384 -0.079114854 0.21989416
000040 47 db 96 3e 41 5e c1 3c e0 73 b9 be ae 24 c4 be
       0.2946417 0.023604514 -0.36221218 -0.38309234
000050 b3 7f de 3e 2c e9 34 3f f7 d4 91 3f 12 d0 e8 3e
       0.43456802 0.7066829 1.1393117 0.45471245
000060 60 a1 52 be d1 02 f2 3d 73 6f 86 3d a3 dc 20 be
       -0.20569372 0.118169434 0.06564226 -0.15709166
000070 f5 88 7c 3c 29 52 4d 3e 6a dd 2b be 78 d9 cc be
       0.0154135125 0.20050873 -0.16783682 -0.40009665
000080 e3 12 a3 bd d9 13 6a bd 2c 9e 62 be 1a 33 52 3e
       -0.07962587 -0.057147834 -0.2213065 0.20527306
000090 45 79 71 3c b7 aa 04 3e 38 e9 3e bb de 6f c3 be
       0.014738386 0.12955748 -0.0029130708 -0.38171285
0000a0 2f 4a 0b bf 26 0c 77 3f 5c 9c b8 bc 6a a1 76 3d
       -0.5441007 0.9650291 -0.022535495 0.06021253
0000b0 fe 35 3f bb 25 16 85 bd 14 9a 13 3e 34 be 78 3e
       -0.002917647 -0.06498364 0.14414245 0.24291307
0000c0 51 d8 be 3d 1d 5b 18 be 67 0c c6 be 08 66 87 3e
       0.09318603 -0.14878507 -0.38681337 0.2644503
0000d0 6c 58 60 3e ec c5 67 3e 31 56 e2 3e 3a be 18 be
       0.2190873 0.22634095 0.44206384 -0.14916316
0000e0 38 db 2f 3d c2 d0 c0 3e 3f 07 c1 bd d9 62 02 bf
       0.042933673 0.3765927 -0.0942521 -0.5093208
0000f0 fc 86 9d 3e 78 a3 04 3e 51 e9 96 3f 5e c2 e6 3d
       0.30767047 0.12952983 1.1789953 0.11267541
000100 6e 8a 08 bf 81 12 ab 3f b3 b4 e2 bd 4e 0b 41 be
       -0.53336227 1.3365022 -0.11069622 -0.18851969
000110 b4 dd f8 be 7b ab 39 bd c3 3f 1f bd 1d 8d be bb
       -0.48606646 -0.045329552 -0.038879167 -0.005815162
000120 8b 00 a2 be 1c 76 46 3f 91 15 87 3d 68 7a 46 3e
       -0.3164104 0.7752397 0.0659591 0.19382632
000130 86 ac cf 3d ed 66 c5 3e e6 38 be bd b6 82 21 3e
       0.10140328 0.3855509 -0.09288196 0.15772519
000140 01 3e ec be da f8 d8 3d 75 27 0b be 43 5d 70 bd
       -0.46141055 0.1059434 -0.1358927 -0.05868269
000150 d3 8a 60 3f ec f1 ad 3c ad ac e8 bd 35 48 32 3e
       0.8771183 0.021233521 -0.1136106 0.17410357
000160 59 33 a0 3c 4b 7c 64 bd 3d 45 dd 3c f1 ed 62 be
       0.019555734 -0.055782598 0.027010554 -0.2216108
000170 ac 08 51 3e 47 58 98 bf 52 96 8b bd 15 c3 ff 3e
       0.20413464 -1.190194 -0.06815781 0.49953523
000180 c7 0a fc 3b ed 6e 1b 3e 6e 9c 52 3f dd 1a 0a 3e
       0.0076917144 0.15179034 0.8226994 0.1348681
000190 e8 00 f0 3d d8 64 20 bf 0c 14 32 be 57 4d b3 be
       0.11718923 -0.62653875 -0.1739046 -0.35019943
0001a0 ed db 08 bb 28 a0 9e be 93 9a 1a 3e 61 89 18 bf
       -0.002088304 -0.30981565 0.15098028 -0.59584624
0001b0 6d 62 ed 3b 08 b6 9d be ea ef 52 3f 30 1a 1a 3f
       0.0072443993 -0.3080294 0.8239733 0.6019621
0001c0 a8 1b dd 3e 98 2b 01 3f ce 6f fd 3b 62 27 c6 3d
       0.43185163 0.50457144 0.0077342754 0.096754804
0001d0 e1 75 13 3f f5 c4 48 bd 00 8b c7 3b 7a db a7 bb
       0.57601744 -0.049015958 0.006089568 -0.005122599
0001e0 eb a3 55 be 7c 74 73 be 70 15 a0 be 0b 68 5f 3e
       -0.20863311 -0.23774904 -0.31266356 0.21817033
0001f0 58 99 85 3d b0 d8 b0 3d b9 ca 80 be 56 65 b3 3e
       0.065233886 0.0863508 -0.25154665 0.3503825
000200 ad a7 c1 3d d6 61 ee bd 33 66 12 be 9c 50 93 3e
       0.0945581 -0.116397545 -0.14296798 0.28772438
000210 11 03 3a 3e 39 92 85 3f 3c 2f 01 bf 2c 82 78 be
       0.18165232 1.0435249 -0.504627 -0.24268407
000220 ac 53 91 3c ac 2f 3c be 30 a2 15 3e c3 30 cd 3e
       0.017740093 -0.1837756 0.14612651 0.40076265
000230 15 1c c7 bd c6 e3 87 be fe 33 ce bf ab 75 00 bf
       -0.09722153 -0.26540965 -1.6109617 -0.5017955
000240 04 29 3b 3e a2 ec e8 3d b2 1b 19 be 22 8c 3c bf
       0.18277365 0.11373259 -0.14951971 -0.73651326
000250 c4 e7 39 3d 3a 2c 57 be 7e 7b b0 bc d7 8b 16 bf
       0.045387045 -0.21012965 -0.02154326 -0.5880713
000260 02 66 d3 be 00 70 1a 3c 7d 45 15 be fa fa 4d 3d
       -0.41288763 0.009426117 -0.14577289 0.050288178
000270 04 91 30 be 2e 9e 98 3c 64 dc 99 be 0b b1 18 3d
       -0.17242819 0.018630113 -0.30050957 0.037278216
000280 8d 5f 78 3e 4d 91 ae bf dd cd a4 bd af 39 b5 3d
       0.242552 -1.3638092 -0.08047078 0.08848893
000290 18 f5 68 3e b5 57 01 3e 65 06 94 3d dd f7 c9 3a
       0.22749746 0.12631114 0.07227782 0.0015408952
0002a0 20 7a 2f bf b4 86 2a be 6a 62 19 be 8c 95 1a 3e
       -0.6854572 -0.16652948 -0.14978948 0.1509611
0002b0 45 57 72 3e ad 37 42 3f 2b c1 a6 be 64 e4 34 bd
       0.23666103 0.75866205 -0.3256925 -0.044163123
0002c0 9d 08 f3 bd f2 b7 a4 bc e7 12 84 bf 89 61 cf 3e
       -0.11866877 -0.020107243 -1.0318269 0.405041
0002d0 90 b9 0b bd b4 a4 b6 bd 1a d8 b9 3e 47 15 60 bd
       -0.034112513 -0.089181334 0.36297685 -0.05470779
0002e0 cb 60 bc be d9 5d 0f 3e 87 2b d6 bd 4a 82 79 bd
       -0.36792597 0.14000644 -0.10457521 -0.06091527
0002f0 0c cf 2e be 1e 09 8c 3d f5 65 2a bc 62 42 5e bd
       -0.1707117 0.068376765 -0.010400285 -0.054262526
000300 64 f1 0e 3e 00 8c c1 3d 1e 64 01 3f 09 ea bc 3c
       0.1395927 0.09450531 0.5054339 0.023060815
000310 ec 4d ab 3d 96 d0 33 3e 8d ba 08 3f 48 8b ae bf
       0.08364472 0.17560038 0.53409654 -1.3636255
000320 d7 d0 4c bd d6 39 f5 bd dc 02 8f be fb aa 24 3f
       -0.050003853 -0.11973922 -0.2793187 0.64323395
000330 0a fb 22 be 39 39 3d bf ee ff 54 3e 13 a3 51 bf
       -0.15916076 -0.7391544 0.20800754 -0.81889457
000340 2f 87 3c be 8c a7 8b bd ce 2f 44 3f a7 3d 69 3f
       -0.18410943 -0.068190664 0.76635444 0.911097
000350 f6 8f 86 be 1e 1d 1e 3e 36 ce ad 3e d5 11 0b 3e
       -0.26281708 0.15440795 0.3394639 0.13581021
000360 0e a9 26 bd 18 c2 42 bd b5 96 d1 bc 12 0e 94 be
       -0.040688567 -0.047548383 -0.025584558 -0.28916985
000370 a0 90 15 be 47 f0 88 3e f2 b2 2a be db 81 62 3e
       -0.14605951 0.26745817 -0.16669825 0.22119848
000380 cf d9 99 3e 7d db e6 3d 4e 87 4b 3c 3a 30 f9 bd
       0.30048987 0.11272333 0.012422396 -0.121674016
000390 5f b1 fe 3e b1 06 35 be c7 d7 6b bc dc e8 02 3f
       0.49744698 -0.17678334 -0.014394707 0.51136565
0003a0 fe ed 8a 3f 97 36 82 3d bc b3 9d 3d 68 7d f5 3d
       1.085388 0.063580684 0.07700297 0.1198681
0003b0 55 6a 98 bb 82 0a 71 3e ad f4 ef bd 9c 91 c7 bb
       -0.0046513476 0.23539165 -0.1171659 -0.006090356
0003c0 3f a9 55 3c 27 25 7b be 52 99 f4 be 38 96 e9 bd
       0.01304084 -0.24525891 -0.47773224 -0.11405605
0003d0 2d 64 29 be bc 97 57 3e ab 98 8b 3f 46 32 0c 3f
       -0.1654212 0.21053976 1.0905966 0.5476421
0003e0 7f 9a 77 3e 80 c4 83 bf ee 61 8d bd a8 f4 89 be
       0.2418003 -1.0294342 -0.06903444 -0.2694447
0003f0 d2 a0 8d 3e e7 ff 3f 3e 74 74 36 bc aa 2c d6 3b
       0.2766176 0.18749963 -0.011136163 0.006536086

ResPart.stack1_0.Block.0.bias f4 [32]
000000 94 59 0a 3e 56 b7 eb be 36 1e c5 be 96 12 d2 3d
       0.13510734 -0.46038312 -0.38499612 0.10257451
000010 2b 26 60 bf 84 24 90 be 2c 06 96 bc 37 09 b4 be
       -0.8755824 -0.2815286 -0.01831349 -0.3516328
000020 22 b3 4c be a4 ef 5e 3e cb bb cd be 31 fb 3b be
       -0.19990209 0.21771103 -0.40182337 -0.1835754
000030 be a1 29 bf 3a bf 05 bf 30 f9 c5 be 5e 7b 75 bf
       -0.66262424 -0.52244914 -0.38666677 -0.9589137
000040 3b 7d 4c be 4f 45 19 bf e9 8b 90 bf 96 ca aa 3e
       -0.19969647 -0.5987138 -1.1292697 0.33357686
000050 86 a5 f9 be 4f 2d fd 3d 00 87 17 bf 90 dc 9d bd
       -0.48759097 0.123621576 -0.5919037 -0.077080846
000060 e2 c0 63 be 4a f4 a7 3e 82 75 ff bb 63 b2 d7 be
       -0.22241548 0.32803565 -0.0077959904 -0.42128286
000070 a6 8a aa be 7d 61 93 be dc ed 19 bf 93 75 93 3e
       -0.33308905 -0.28785315 -0.6012857 0.2880064

ResPart.stack1_0.Block.0.running_mean f4 [32]
000000 2e c3 56 bd de 9f 0b 3e 8e 0b 31 3b 2e 67 f2 3d
       -0.05243223 0.13635203 0.0027014944 0.11836086
000010 43 5e a4 3d 97 99 a4 3b a5 4d 99 be 6f 32 80 3e
       0.080257915 0.005023192 -0.2994205 0.25038478
000020 cd 77 1d 3e 43 36 00 be 74 c7 0e 3d 9d b4 ff bd
       0.15377732 -0.12520699 0.034858182 -0.12485621
000030 8e 04 a0 3c 68 e3 5a bd 03 ca 3c bd f5 1e 30 3e
       0.019533422 -0.053439528 -0.04609109 0.17199309
000040 a2 1b 6e 3d 4d c1 da bc 7c 7d 3e be fb a8 c0 bc
       0.05813182 -0.026703501 -0.18602556 -0.023518076
000050 29 e6 11 3d 15 18 87 3c 2e 50 80 be ce 5e c7 bd
       0.03561989 0.016490975 -0.25061172 -0.097348794
000060 7f 11 fb bc 6f 60 b3 bd a4 9b af 3d 9f 5b 8c be
       -0.030647991 -0.087586276 0.08574608 -0.2741365
000070 ca 9e f3 bd 50 e9 ec 3d 0e 30 01 be 2e 9d ae bd
       -0.11895521 0.11567938 -0.12615988 -0.085260734

ResPart.stack1_0.Block.0.running_var f4 [32]
000000 ea e8 3c 41 64 8b 85 41 0a 4f 33 41 3e 9b b6 40
       11.806864 16.693062 11.206797 5.7064505
000010 c0 6b c6 40 b9 0b 78 41 82 4b f5 40 7d 5c 33 41
       6.200653 15.502862 7.6654673 11.21008
000020 31 dc f6 41 24 0e 5c 41 42 59 46 41 09 02 c5 41
       30.857515 13.753452 12.396791 24.625994
000030 5f 0d be 40 eb 87 41 41 98 8a 3b 41 1e 0c e1 40
       5.939132 12.095683 11.721336 7.032729
000040 6d 04 94 41 28 2b 12 41 1f db 4d 40 f7 09 12 41
       18.502161 9.135536 3.216499 9.127433
000050 ae 8d dc 41 11 93 66 41 74 8c 44 40 2f 02 15 41
       27.56918 14.410905 3.0710726 9.313033
000060 82 61 a1 41 9c 14 bb 40 4c 2e 42 40 39 1d 2a 41
       20.172611 5.846266 3.0340757 10.632134
000070 af b5 47 41 ae c8 9e 41 70 e3 09 41 de 58 d1 41
       12.481856 19.847988 8.618027 26.168392

ResPart.stack1_0.Block.0.weight f4 [32]
000000 7f 73 a0 3f c5 b2 c0 3f 7a 22 a5 3f 28 c7 80 3f
       1.2535247 1.5054556 1.2901146 1.0060778
000010 54 dc b1 3f 77 f2 b7 3f ba 34 b0 3f 30 8f b7 3f
       1.3895364 1.4370869 1.3766091 1.4340572
000020 d7 1b e1 3f 43 62 a6 3f 2a 21 ab 3f 4a b5 d4 3f
       1.7586621 1.2998737 1.3369496 1.6617825
000030 b8 96 ae 3f 32 05 c6 3f cd 81 e5 3f de 1f d9 3f
       1.3639746 1.5470335 1.7930237 1.696285
000040 eb 88 a4 3f a3 14 9d 3f 5c 30 b6 3f 74 ac 68 3f
       1.2854284 1.2271923 1.4233508 0.9088814
000050 2c 42 d4 3f b7 69 ba 3f 6c d5 b2 3f 00 59 aa 3f
       1.6582694 1.4563512 1.3971381 1.3308411
000060 d4 d5 d9 3f 7f 3a 7f 3f 90 08 76 3f e1 96 ed 3f
       1.701838 0.9969863 0.96106815 1.856167
000070 6b f3 b6 3f 58 5f d1 3f ae 4b a5 3f f0 d0 c6 3f
       1.4293035 1.6357222 1.2913721 1.5532513

ResPart.stack1_0.Block.2.bias f4 [16]
000000 89 88 e5 bb e8 0f 1e bd cd ff 6b 3b 12 57 02 bc
       -0.0070048016 -0.038589388 0.0036010623 -0.0079553295
000010 32 77 94 3c 6c f6 d4 bc b9 20 d7 bc 4a 52 30 3d
       0.018123243 -0.02599641 -0.02626072 0.043047227
000020 db be c8 bc a7 92 d2 3c 02 16 47 bc 72 05 21 bd
       -0.02450507 0.025704695 -0.012151243 -0.039311834
000030 82 3f 0f bc 26 8c 9a 3c b1 3e 57 bc c7 3f ef 3a
       -0.008743169 0.018865656 -0.013137505 0.001825326
