Project636/model/test_model.onnx (onnx, 227135 bytes, 80 tensors)

FC.bias f4 [10]
0.17628877 -1.0278194 0.74370635 1.1066623 0.43143952 0.2708605 0.0045232116 0.10053536
-0.9575797 -0.85258377
00000000: 0b85 343e 968f 83bf 8a63 3e3f 1ca7 8d3f
00000010: a4e5 dc3e 3aae 8a3e 7337 943b 7ce5 cd3d
00000020: f123 75bf ee42 5abf

FC.weight f4 [10, 128]
-0.37241706 -0.21492358 -0.3933375 -0.013445219 -0.07123319 0.24483223 0.05999942 -0.06880984
0.33400834 -0.14870174 0.03519511 0.15115902 -0.13748518 0.25612986 -0.2078629 0.084679976
-0.37041768 -0.33469424 -0.009248957 -0.047100704 0.14281689 -0.23570183 -0.06300445 -0.102747895
0.26068264 0.29907614 0.15166837 -0.011661371 0.18029691 -0.059700634 0.3479629 -0.26513827
-0.0001498867 0.07320159 0.10862134 0.10005233 -0.0795834 0.011817786 0.061889045 0.019922804
-0.05734478 -0.25169396 -0.32541525 0.032933056 0.10605191 0.16014697 -0.24869944 -0.03604394
-0.41955143 0.15622886 -0.23298888 0.13556695 -0.3699376 -0.004125909 -0.20594566 -0.01744255
0.031033423 -0.46125036 -0.021661382 0.23692594 -0.043603938 0.25828114 -0.057691794 0.051592525
-0.14224811 -0.13218863 0.1988816 0.1829494 -0.19027457 -0.4791012 -0.044439886 -0.12516801
0.5050839 -0.054754592 -0.014583493 0.12689015 -0.03228925 -0.11278622 0.004362527 0.09075753
-0.10272856 -0.22676253 -0.15325665 0.19864334 -0.15614061 0.42702758 -0.11535693 0.20561168
0.016014162 -0.18491672 -0.06248575 -0.25090253 -0.24402755 -0.116967745 -0.5695949 -0.23153302
-0.07485954 0.52895683 -0.07085588 0.18735556 0.2575133 -0.013990276 -0.20167832 0.12868986
0.019915385 -0.0047578923 0.04165686 -0.03647137 -0.08166863 0.016262824 -0.077540025 -0.019574732
-0.3193719 0.13647974 0.18099923 0.30000228 -0.16377664 -0.03134157 0.29134464 -0.14309067
-0.10596197 -0.04976971 -0.35671198 0.3406681 -0.06047172 0.13466989 -0.1945258 0.2460313
0.3149277 -0.07079321 0.47985917 0.4062035 0.34520236 -0.19694099 -0.05978291 -0.01612053
-0.12417666 0.24506022 0.45817223 0.120523944 -0.13272394 0.00807205 -0.33260426 -0.21991313
0.107849106 0.18884817 0.009712178 -0.37592357 0.35417768 -0.11424067 -0.098428085 -0.054219212
-0.034386776 0.2794779 0.5329947 0.15989107 0.04802173 0.037528787 -0.04527776 0.23102339
0.19500925 -0.30255392 -0.051980067 0.12379301 -0.02945041 0.42120284 -0.020786626 -0.02115298
0.100732386 0.011518653 0.27274826 0.49062982 -0.07864589 0.18024145 0.08793755 0.08085464
0.16969322 0.07933115 0.135071 0.058750264 -0.0047562127 0.18432297 -0.43150052 -0.101894274
-0.3719499 -0.22874214 -0.33097506 0.16019474 -0.27942842 0.04039314 0.006695459 0.07322003
-0.035647016 -0.087639436 0.20425202 -0.19297326 -0.351014 -0.08064718 0.14185993 0.28970793
0.18816231 0.19231476 -0.098272055 0.0050386125 0.120935015 -0.09471738 -0.044134617 -0.14268799
-0.23818672 -0.33321095 0.22702691 -0.17179126 -0.3339397 -0.20868151 0.3622703 -0.30464327
0.114168175 -0.13845292 0.002050347 -0.3937217 0.12858284 0.21646854 -0.4935016 -0.0014594635
-0.33893713 -0.041640587 -0.16806702 0.00982354 0.1807377 0.10455176 0.28482902 -0.21047477
0.16983691 0.07083631 -0.17505142 -0.17361197 -0.207177 -0.118172586 0.08565326 0.2455684
0.49521297 0.12536736 -0.15471962 -0.22988528 0.24931651 -0.24808617 0.1943435 0.14943711
-0.11041195 -0.0032996864 -0.23356578 -0.24731736 0.16762418 -0.01292418 0.11213566 -0.23291005
00000000: 73ad bebe ed14 5cbe 8863 c9be 5649 5cbc
00000010: b5e2 91bd 4db5 7a3e f4c1 753d 2cec 8cbd
00000020: 2403 ab3e 4545 18be bf28 103d 6ec9 1a3e
00000030: eac8 0cbe 7423 833e 03da 54be b26c ad3d
00000040: 63a7 bdbe 0b5d abbe f088 17bc abec 40bd
00000050: 973e 123e d25b 71be 7a08 81bd 7d6d d2bd
00000060: 3278 853e 8220 993e f44e 1b3e 560f 3fbc
00000070: c19f 383e a788 74bd 3128 b23e 34c0 87be
00000080: e82a 1db9 b7ea 953d dd74 de3d 3ce8 cc3d
00000090: 9ffc a2bd 639f 413c 5e7f 7d3d 2635 a33c
000000a0: 5ce2 6abd 08de 80be d49c a6be d0e4 063d
000000b0: be31 d93d 91fd 233e 11ab 7ebe cfa2 13bd
000000c0: 72cf d6be 75fa 1f3e a394 6ebe 10d2 0a3e
000000d0: 7668 bdbe a232 87bb 6be3 52be aee3 8ebc
000000e0: ce39 fe3c 0229 ecbe 3673 b1bc b79c 723e
000000f0: 0b9a 32bd 6d3d 843e 3b4e 6cbd af52 533d
00000100: 7da9 11be 755c 07be 9ea7 4b3e 1657 3b3e
00000110: 56d7 42be c14c f5be 9906 36bd 0b2c 00be
00000120: 2e4d 013f 5a46 60bd 9aef 6ebc 7eef 013e
00000130: bc41 04bd 76fc e6bd 87f3 8e3b 15df b93d
00000140: 5a63 d2bd 7034 68be 50ef 1cbe 2969 4b3e
00000150: 53e3 1fbe 5ca3 da3e 4140 ecbd de8b 523e
00000160: 2230 833c cf5a 3dbe 0ff1 7fbd 4c76 80be
00000170: 5ce2 79be c98c efbd f9d0 11bf fe16 6dbe
00000180: f54f 99bd b769 073f e31c 91bd 23da 3f3e
00000190: c9d8 833e 7837 65bc c384 4ebe 46c7 033e
000001a0: 9725 a33c 18e8 9bbb 62a0 2a3d 0163 15bd
000001b0: e241 a7bd 9d39 853c 4ecd 9ebd 305b a0bc
000001c0: b784 a3be 58c1 0b3e dd57 393e e699 993e
000001d0: 10b5 27be 0560 00bd 202b 953e 5c86 12be
000001e0: 9702 d9bd 53db 4bbd f4a2 b6be 0d6c ae3e
000001f0: 32b1 77bd e7e6 093e c531 47be a1ef 7b3e
00000200: 343e a13e 08fc 90bd 1ab0 f53e e8f9 cf3e
00000210: 5dbe b03e e6aa 49be edde 74bd 340f 84bc
00000220: 5550 febd 11f1 7a3e 8d95 ea3e 42d5 f63d
00000230: c9e8 07be a240 043c 1b4b aabe e830 61be
00000240: fedf dc3d 6a61 413e d41f 1f3c 0e79 c0be
00000250: c756 b53e 03f7 e9bd aa94 c9bd f714 5ebd
00000260: 26d9 0cbd ba17 8f3e 5772 083f 7cba 233e
00000270: 6fb2 443d c9b7 193d 2c75 39bd 6591 6c3e
00000280: 81b0 473e 59e8 9abe 0de9 54bd 3187 fd3d
00000290: fc41 f1bc e6a7 d73e b748 aabc 0449 adbc
000002a0: c84c ce3d bbb8 3c3c a9a5 8b3e d533 fb3e
000002b0: 1911 a1bd 3791 383e 9a18 b43d 1e97 a53d
000002c0: 0fc4 2d3e 5f78 a23d 0d50 0a3e 1ea4 703d
000002d0: 01da 9bbb 29bf 3c3e a3ed dcbe f2ad d0bd
000002e0: 3870 bebe 613b 6abe 9075 a9be 170a 243e
000002f0: 3e11 8fbe 4773 253d 9565 db3b 62f4 953d
00000300: 9b02 12bd 4e7c b3bd 7127 513e c89a 45be
00000310: 1bb8 b3be 592a a5bd bb43 113e 9954 943e
00000320: 9fad 403e 29ee 443e dc42 c9bd f21a a53b
00000330: c7ac f73d 30fb c1bd 80c6 34bd cd1c 12be
00000340: 38e7 73be a09a aabe be79 683e 0cea 2fbe
00000350: 25fa aabe 9bb0 55be 7e7b b93e 34fa 9bbe
00000360: 01d1 e93d 9ac6 0dbe 1d5f 063b e495 c9be
00000370: 38ab 033e eea9 5d3e 3eac fcbe 784b bfba
00000380: 2b89 adbe 528f 2abd c319 2cbe eaf2 203c
00000390: 4e13 393e 3c1f d63d 1cd5 913e b386 57be
000003a0: bae9 2d3e a112 913d ae40 33be 56c7 31be
000003b0: 3526 54be 7804 f2bd fa6a af3d 4876 7b3e
000003c0: 8e8c fd3e 4d60 003e d26e 1ebe 0c67 6bbe
000003d0: d44c 7f3e 4d0a 7ebe fc01 473e 0b06 193e
000003e0: a91f e2bd 8d3f 58bb de2b 6fbe c340 7dbe
000003f0: aca5 2b3e f1bf 53bc 62a7 e53d f97f 6ebe

InConv.bias f4 [16]
0.07145616 -0.17792486 0.015791927 0.077397525 0.060516823 0.014522319 -0.06068214 0.09424996
0.017922245 -0.08301253 -0.05183559 0.12886745 -0.20117512 0.17609179 -0.07146748 -0.14160702
00000000: 9b57 923d ef31 36be 125e 813c 9882 9e3d
00000010: 7de0 773d 05ef 6d3c d68d 78bd 1f06 c13d
00000020: acd1 923c 7902 aabd 8e51 54bd d4f5 033e
00000030: da00 4ebe 6851 343e 8b5d 92bd 6e01 11be

InConv.weight f4 [16, 3, 3, 3]
-0.003314927 -0.07644923 -0.48724297 0.23505248 -0.0642815 0.074158266 -0.04109743 0.01917849
0.21681683 -0.24337043 -0.44358262 -0.598653 0.21843016 -0.18281141 -0.19125387 0.32378665
0.52112603 0.63532084 0.11023165 0.26821703 -0.27807784 0.21120879 0.08279508 -0.18353778
-0.24674569 0.16991833 0.024606809 -0.30861235 0.43351734 0.33514425 -0.0028788566 1.1150634
-0.696354 -0.35128343 -0.14164284 -0.08303923 -0.096563116 0.22000952 -0.3308401 0.35767075
0.89415395 -1.3438069 0.29724747 0.29371905 0.007485751 0.1691529 -0.08872828 -0.029095547
0.10646678 0.26845586 -1.0468935 -0.17983553 0.11231462 0.24951474 -0.42876527 0.27044162
0.37652263 0.13965201 -0.34132642 0.27748019 -0.16082186 -0.2102471 0.006624189 0.036909398
0.19751234 0.45601225 0.4464527 -0.73913044 0.05493709 0.47871408 -0.1916562 -0.29069862
-0.58778113 -0.24152979 0.65339994 -0.40681422 -0.8186461 0.54997575 0.029784026 -0.019569078
0.5779863 -0.06521424 -0.7140457 0.0158691 -0.09220624 0.6224341 -1.2549641 0.33186996
0.8959797 0.405662 0.77078694 0.6608566 0.69815505 -0.2408313 0.8142539 -0.8922028
-0.993464 -0.7045907 -0.66015244 -0.55903935 -0.51389945 0.12590608 -0.6167942 0.70063543
0.27057388 -0.37220722 0.46971744 0.81904733 0.21620218 -0.16953206 -0.062217515 0.39427117
-0.05218402 -0.5307146 0.0768424 0.15301633 -0.098464034 -0.12336521 -0.18568394 -0.15983759
-0.041968446 -0.3424391 -0.27547878 -0.06783963 -0.15960437 -0.0322764 -0.19405687 0.20998697
0.2384067 -0.04151567 0.12689023 0.16756977 -0.017771007 -0.09306612 -0.047024515 0.13203052
-0.16680725 -0.22489808 -0.15695345 -0.38519052 -0.7676614 0.4722154 0.7280357 0.29756284
0.23057991 0.9944594 0.30586016 -0.41051754 -0.0071345298 -0.52308434 -0.27959105 9.292486e-05
-0.38480324 0.42459193 1.0135379 0.40781286 -0.20424707 -0.019654024 -0.46868432 -0.2177842
-0.14831842 -0.57214737 -0.69338965 -0.15366194 0.70090836 -0.55185753 0.6542473 -0.02390287
-0.28984314 -0.48078957 0.6964709 0.61171085 0.41746256 0.43791452 0.8563124 0.80494434
-1.568777 0.33197793 -0.6413235 -1.0555761 -0.39281785 -0.99182117 -0.22508784 0.38551652
0.3248597 -1.0188278 0.6795431 0.63298637 0.5335981 0.6506405 0.6554331 -0.45565328
1.0717936 0.20390852 -1.5508958 0.89248407 -0.36727363 -1.093893 -0.13358296 0.1274877
0.26279965 -0.2898149 -0.13966642 -0.1768806 0.08532536 0.015587756 0.14033177 -0.7664652
-0.37040052 0.5468958 -0.9494791 -0.18823983 0.8472161 -0.12982868 0.41999713 0.8991708
0.792935 1.7455574 0.72203463 0.27729 -0.2878173 -0.09524649 -0.62023157 -1.3280402
-1.0052959 -0.6933171 -0.19703472 -0.4243788 -0.38922918 -0.4244345 0.32450962 0.16131614
0.76134384 0.8925901 -0.00082759414 -0.1871427 -0.32941493 -0.11142485 -0.3683509 -0.21331462
0.1742152 0.787699 0.44643238 -0.5665716 0.54821765 0.43665326 -0.24594694 0.45354596
1.4067279 -0.45662755 0.07430678 0.061510958 0.9006027 -0.16141802 -0.60543317 0.27411345
00000000: 3f3f 59bb 6a91 9cbd e977 f9be 99b1 703e
00000010: 05a6 83bd 4ae0 973d c755 28bd 351c 9d3c
00000020: 3b05 5e3e 1936 79be 431d e3be 5341 19bf
00000030: 28ac 5f3e ea32 3bbe 0ed8 43be 5dc7 a53e
00000040: 8468 053f 63a4 223f 22c1 e13d be53 893e
00000050: 3860 8ebe 1e47 583e 7890 a93d 54f1 3bbe
00000060: e7aa 7cbe 12ff 2d3e 3894 c93c 7002 9ebe
00000070: fcf5 dd3e 0798 ab3e 33ab 3cbb 66ba 8e3f
00000080: 4144 32bf 6cdb b3be d20a 11be 7910 aabd
00000090: e2c2 c5bd 2d4a 613e e063 a9be 9f20 b73e
000000a0: 46e7 643f dd01 acbf d230 983e 5862 963e
000000b0: 084b f53b 6b36 2d3e 2cb7 b5bd c959 eebc
000000c0: 410b da3d 0c73 893e 9b00 86bf ce26 38be
000000d0: 3505 e63d cb80 7f3e 1f87 dbbe 5377 8a3e
000000e0: 93c7 c03e f000 0f3e 56c2 aebe e211 8e3e
000000f0: 7cae 24be 044b 57be ba0f d93b 4f2e 173d
00000100: ad40 4a3e 707a e93e 7395 e43e a737 3dbf
00000110: b705 613d 031a f53e 8641 44be 73d6 94be
00000120: d378 16bf 9653 77be 3845 273f f449 d0be
00000130: ca92 51bf 36cb 0c3f a1fd f33c 554f a0bc
00000140: e9f6 133f 0b8f 85bd b3cb 36bf eaff 813c
00000150: a0d6 bcbd d757 1f3f aaa2 a0bf dcea a93e
00000160: ed5e 653f eeb2 cf3e 4b52 453f e62d 293f
00000170: 4aba 323f 7b9c 76be f272 503f 6767 64bf
00000180: a853 7ebf 0e60 34bf c0ff 28bf 341d 0fbf
00000190: ea8e 03bf 86ed 003e 3ae6 1dbf d85c 333f
000001a0: a988 8a3e f291 bebe ce7e f03e 16ad 513f
000001b0: 1b64 5d3e d099 2dbe cbd7 7ebd e9dd c93e
000001c0: e9be 55bd e9dc 07bf 8c5f 9d3d 50b0 1c3e
000001d0: 83a7 c9bd e6a6 fcbd ee23 3ebe 77ac 23be
000001e0: 1be7 2bbd 2d54 afbe 8e0b 8dbe 81ef 8abd
000001f0: 546f 23be 4234 04bd d8b6 46be d306 573e
00000200: e320 743e 560c 2abd 83ef 013e 6997 2b3e
00000210: 8194 91bc 7399 bebd c79c 40bd 0233 073e
00000220: 85cf 2abe af4b 66be 68b8 20be b137 c5be
00000230: 7585 44bf 38c6 f13e 8c60 3a3f 285a 983e
00000240: 241d 6c3e e494 7e3f b499 9c3e 5b2f d2be
00000250: c6c8 e9bb dbe8 05bf 8f26 8fbe a8e0 c238
00000260: ee04 c5be 1d64 d93e 9cbb 813f d9cc d03e
00000270: 2526 51be 7a01 a1bc 64f7 efbe d202 5fbe
00000280: c9e0 17be 4078 12bf fc81 31bf 8e59 1dbe
00000290: bb6e 333f 8946 0dbf c07c 273f f4cf c3bc
000002a0: 5266 94be 0d2a f6be eb4b 323f 1599 1c3f
000002b0: a7bd d53e 5536 e03e 4a37 5b3f d510 4e3f
000002c0: afcd c8bf 03f9 a93e c72d 24bf 1e1d 87bf
000002d0: 6c1f c9be fee7 7dbf 6d7d 66be 6c62 c53e
000002e0: 0354 a63e f368 82bf 89f6 2d3f 650b 223f
000002f0: e399 083f 6090 263f 77ca 273f 634b e9be
00000300: 8830 893f 65cd 503e c183 c6bf d679 643f
00000310: 4a0b bcbe b004 8cbf f9c9 08be 238c 023e
00000320: ad8d 863e 9e62 94be b704 0fbe 3020 35be
00000330: 10bf ae3d ca63 7f3c 22b3 0f3e 1037 44bf
00000340: 23a5 bdbe 5d01 0c3f 1011 73bf f1c1 40be
00000350: 28e3 583f cff1 04be dd09 d73e 0f30 663f
00000360: cafd 4a3f 6d6e df3f 43d7 383f f4f8 8d3e
00000370: ca5c 93be 9710 c3bd 7fc7 1ebf 39fd a9bf
00000380: 89ad 80bf 3b7d 31bf 78c3 49be 2e48 d9be
00000390: 0c49 c7be 7b4f d9be 2026 a63e 0f30 253e
000003a0: 6ee7 423f c980 643f e7f2 58ba 56a2 3fbe
000003b0: 13a9 a8be b632 e4bd 7d98 bcbe 266f 5abe
000003c0: 7865 323e a4a6 493f c992 e43e d60a 11bf
000003d0: fe57 0c3f 0491 df3e 84d9 7bbe 2d37 e83e
000003e0: a90f b43f 16cb e9be 272e 983d eaf2 7b3d
000003f0: e68d 663f c44a 25be abfd 1abf 9958 8c3e

ResPart.stack0_0.Block.0.bias f4 [16]
-0.13131237 0.8574192 0.5695035 1.0208937 -0.10866582 0.60412556 0.97642756 0.03894781
0.15423931 0.21149668 0.0496165 0.63267773 0.60255855 0.3828226 0.94351906 0.2023145
00000000: c076 06be d37f 5b3f fbca 113f a5ac 823f
00000010: 2f8c debd f9a7 1a3f 28f7 793f bd87 1f3d
00000020: e9f0 1d3e 9692 583e ac3a 4b3d 2bf7 213f
00000030: 4741 1a3f 5301 c43e 778a 713f 882b 4f3e

ResPart.stack0_0.Block.0.running_mean f4 [16]
0.0378211 -0.08917997 0.060481112 0.02685379 -0.04429789 -0.012775117 -0.06151544 0.046950843
0.0031831092 -0.06372146 -0.034483884 0.08612419 -0.007425296 -0.035848226 0.019375214 -0.067070164
00000000: 4cea 1a3d fda3 b6bd 0bbb 773d 7bfc db3c
00000010: b471 35bd b94e 51bc 9df7 7bbd 874f 403d
00000020: b69b 503b 6680 82bd f93e 0dbd e161 b03d
00000030: e64f f3bb 97d5 12bd c5b8 9e3c 155c 89bd

ResPart.stack0_0.Block.0.running_var f4 [16]
1.6230394 2.0043771 1.5246761 1.018064 1.054965 2.5065215 1.5575916 1.3829197
1.3265821 0.9769931 1.1146991 1.3675902 0.7638588 0.9374492 1.0286673 1.6643478
00000000: c1bf cf3f b747 0040 9628 c33f ec4f 823f
00000010: 1809 873f d96a 2040 295f c73f 8303 b13f
00000020: 71cd a93f 381c 7a3f 76ae 8e3f 320d af3f
00000030: 408c 433f acfc 6f3f 5fab 833f 5909 d53f

ResPart.stack0_0.Block.0.weight f4 [16]
0.8401331 0.86074746 0.8038745 0.5830103 0.7216394 0.8404954 0.6409547 0.7456139
0.6435175 0.82110643 0.6618391 0.6322328 0.6439456 0.5752661 0.73651534 0.81838465
00000000: f612 573f f259 5c3f b8ca 4d3f 2a40 153f
00000010: 5cbd 383f b52a 573f 9b15 243f 8de0 3e3f
00000020: 90bd 243f 0834 523f 4a6e 293f 02da 213f
00000030: 9ed9 243f a444 133f 458c 3c3f a881 513f

ResPart.stack0_0.Block.2.bias f4 [16]
0.048852473 -0.053488184 0.01614204 -0.006500468 -0.028949337 0.03717473 0.06188854 0.033234783
-0.01962113 0.02025755 -0.071924746 -0.06601209 -0.024470493 0.07701943 -0.003971952 0.07582205
00000000: 8819 483d 6d16 5bbd 503c 843c e101 d5bb
00000010: 2927 edbc 8844 183d d67e 7d3d 3221 083d
00000020: 7ebc a0bc 29f3 a53c 484d 93bd 5931 87bd
00000030: 5876 c8bc 5dbc 9d3d 2627 82bb 9748 9b3d

ResPart.stack0_0.Block.2.weight f4 [16, 16, 1, 1]
-0.7739214 0.07547353 -0.32148975 0.054615483 0.07911971 0.49382225 0.44145206 -0.5325604
-0.3292978 -0.022702452 -0.004531363 -0.49587128 0.040497985 -0.094466396 -0.12392392 0.06861284
-0.032960996 -0.12458982 0.067699336 0.25509962 0.17155235 -0.0067893267 0.107794575 -0.0918647
-0.13433939 1.0205787 -0.026347212 -0.058940455 -0.8788301 0.17434308 -0.57682824 -0.41482174
-0.0736836 -0.44438535 -0.5879684 0.4864972 0.9237861 0.31649584 0.011246392 -0.07203437
-0.2516135 -0.3873456 -0.3565284 0.30307934 -0.44870687 -0.048143793 -0.19153555 -0.2415681
-0.470363 0.0372722 0.44250515 0.059150856 0.019865457 -0.6731108 0.425381 0.24743454
-0.5681883 -0.2547982 -0.34291402 -0.40884084 -0.318652 -0.17411119 -0.17339595 -0.60767925
-0.3372318 0.22637224 0.5372025 0.35070303 0.16326243 -0.13945597 0.42664236 0.38932502
-0.107662395 -0.05570816 -0.2715184 -0.22941108 -0.031573053 0.032917317 -1.0565171 0.37537506
-0.54162747 -0.5724855 0.115023926 0.28706023 -0.19227688 -0.44187793 -0.28048915 0.14715819
0.048132688 0.027180906 -0.071760155 0.749652 0.14145449 -0.083255775 0.12543552 -0.43744674
-0.06139228 -0.24917027 0.15775229 0.093716964 0.02482325 0.44592932 -0.5092801 -3.4767287e-05
-0.06322795 -0.7548662 0.6012768 -0.13228524 -0.08488927 0.3908717 -0.243781 -0.18794236
0.23709828 -0.2661097 0.041363146 0.37064227 -0.53140235 0.33022487 0.15831739 0.46952006
0.047364216 -0.6541494 -0.8172808 -0.023191074 -0.5267328 0.7644509 0.06588444 -0.20677274
-0.25197747 0.031803593 0.0864825 -0.07948538 -0.33180848 -0.084942885 0.17901985 0.036706336
-0.297276 -0.96496177 -0.14773811 0.010516292 1.007725 0.24161686 0.6643153 0.22402793
0.008913115 0.82300436 -1.0183992 -0.11917812 0.43556634 0.44617876 0.8204761 0.6074632
-0.27338332 0.013593409 -0.08506385 -0.31826806 0.10251218 0.09406807 -0.29097846 -0.2559868
0.35517946 0.1487443 -0.5460677 -0.40604848 0.30117065 -0.70883787 0.08392204 -0.43146214
-0.044387314 -0.09169063 -0.01831902 -0.06524024 0.0757833 0.015615146 0.49726468 -0.6878018
0.0048500584 -0.162055 -0.13769326 0.032605384 0.0062999926 0.63344944 -0.50369275 -0.34086818
-0.027588736 0.02152768 -0.32949486 -0.31378296 0.09833923 -0.30323982 -0.12990434 0.5413369
-0.051843334 0.42829776 -0.2298177 0.9907305 -0.30442676 0.32925007 -0.011907821 0.091294736
-0.4854642 -0.44628805 -0.20861427 0.052787602 0.11697522 -0.28795958 0.08471557 -0.41995168
-0.028945634 -0.21369839 -0.14455645 0.10088783 0.24621323 0.46226966 0.04073515 -0.19196242
0.45074096 0.22419754 0.32583353 0.6752274 -0.06706434 0.7330923 0.7254304 0.4215043
0.4243322 -0.84944654 0.44745496 -1.0280472 0.24486111 -0.5223864 -0.25550935 -0.07251094
-0.04832436 0.030210609 0.32128844 -0.14763571 -0.48089704 0.13282862 0.03672829 0.32642138
-0.3512887 -0.86306155 0.31774962 0.03966993 0.34584013 -0.14497241 -0.97981244 0.054684244
-0.063628964 0.20736887 -0.19598311 0.45303267 -0.030160233 -0.0030022282 0.4060117 0.14868034
00000000: b61f 46bf de91 9a3d 4e9a a4be 7cb4 5f3d
00000010: 8409 a23d 45d6 fc3e 0106 e23e e155 08bf
00000020: b999 a8be 7efa b9bc d47b 94bb d7e2 fdbe
00000030: 37e1 253d 9977 c1bd d3cb fdbd e384 8c3d
00000040: 1c02 07bd f328 ffbd f3a5 8a3d 6b9c 823e
00000050: 6bab 2f3e 0079 debb 67c3 dc3d 8f23 bcbd
00000060: 4490 09be 53a2 823f 1cd6 d7bc 8c6b 71bd
00000070: 02fb 60bf fe86 323e 04ab 13bf 8463 d4be
00000080: 6de7 96bd 7a86 e3be 1985 16bf 2916 f93e
00000090: 3f7d 6c3f be0b a23e c942 383c c186 93bd
000000a0: 7cd3 80be 2a52 c6be e48a b6be 372d 9b3e
000000b0: e8bc e5be 6d32 45bd e521 44be a15d 77be
000000c0: 6bd3 f0be bcaa 183d 0990 e23e 2b48 723d
000000d0: e2bc a23c fd50 2cbf 8acb d93e 7b5f 7d3e
000000e0: ca74 11bf e974 82be 6d92 afbe 9653 d1be
000000f0: 5b26 a3be 344a 32be b58e 31be de90 1bbf
00000100: a6a9 acbe 20ce 673e 1a86 093f 598f b33e
00000110: 442e 273e 8ccd 0ebe de70 da3e 9c55 c73e
00000120: 1a7e dcbd 3d2e 64bd 7604 8bbe bdea 6abe
00000130: bf52 01bd 4fd4 063d f43b 87bf 2931 c03e
00000140: 19a8 0abf 698e 12bf aa91 eb3d 8ff9 923e
00000150: 3be4 44be d33d e2be 469c 8fbe a3b0 163e
00000160: c826 453d 7eaa de3c fdf6 92bd 32e9 3f3f
00000170: 72d9 103e 0182 aabd 2b72 003e 05f9 dfbe
00000180: 7976 7bbd 7e26 7fbe d189 213e aeee bf3d
00000190: 215a cb3c d950 e43e 2e60 02bf 17d3 11b8
000001a0: a87d 81bd e93e 41bf 47ed 193f c875 07be
000001b0: 6dda adbd 5620 c83e baa1 79be f673 40be
000001c0: e4c9 723e 883f 88be 676c 293d d3c4 bd3e
000001d0: fc09 08bf 3c13 a93e f41d 223e ef64 f03e
000001e0: fb00 423d 5676 27bf 5139 51bf 35fb bdbc
000001f0: f6d7 06bf 0eb3 433f 6cee 863d 3cbc 53be
00000200: 3103 81be 7c44 023d bd1d b13d 3bc9 a2bd
00000210: cde2 a9be 89f6 adbd fb50 373e 6259 163d
00000220: 8f34 98be bc07 77bf a948 17be 874c 2c3c
00000230: 22fd 803f 696a 773e 9110 2a3f 9467 653e
00000240: 5008 123c 6ab0 523f e85a 82bf a813 f4bd
00000250: 8d02 df3e 8b71 e43e b90a 523f b582 1b3f
00000260: e6f8 8bbe e4b6 5e3c f535 aebd 08f4 a2be
00000270: e8f1 d13d c3a6 c03d 21fb 94be b410 83be
00000280: 15da b53e 6d50 183e 18cb 0bbf 96e5 cfbe
00000290: 0a33 9a3e 6676 35bf 52df ab3d 9be8 dcbe
000002a0: 79cf 35bd 4cc8 bbbd c511 96bc ad9c 85bd
000002b0: 4634 9b3d abd6 7f3c 7a99 fe3e c713 30bf
000002c0: 3ded 9e3b bff1 25be 76ff 0cbe 398d 053d
000002d0: 2b70 ce3b be29 223f 02f2 00bf 4686 aebe
000002e0: c601 e2bc d15a b03c 8db3 a8be 29a8 a0be
000002f0: 1466 c93d 4042 9bbe a505 05be 0e95 0a3f
00000300: ad59 54bd d849 db3e 5555 6bbe 84a0 7d3f
00000310: d3dd 9bbe 7793 a83e 0519 43bc bcf8 ba3d
00000320: c38e f8be de7f e4be fb9e 55be d037 583d
00000330: b490 ef3d 706f 93be 5b7f ad3d e803 d7be
00000340: 651f edbc c0d3 5abe 9b06 14be 479e ce3d
00000350: 521f 7c3e 9cae ec3e e7d9 263d cc91 44be
00000360: 85c7 e63e 0a94 653e a7d3 a63e b4db 2c3f
00000370: 0759 89bd f0ab 3b3f cfb5 393f 69cf d73e
00000380: 1242 d93e 5475 59bf d118 e53e 0d97 83bf
00000390: dfbc 7a3e 1dbb 05bf 1fd2 82be 9e80 94bd
000003a0: c4ef 45bd 3d7c f73c eb7f a43e d12d 17be
000003b0: 2338 f6be 3a04 083e 6770 163d b420 a73e
000003c0: 1ddc b3be 9af1 5cbf 14b0 a23e f07c 223d
000003d0: f511 b13e a673 14be fdd4 7abf 96fc 5f3d
000003e0: e74f 82bd 8158 543e ccaf 48be e6f3 e73e
000003f0: 9812 f7bc 08c1 44bb c4e0 cf3e a93f 183e

ResPart.stack0_0.Block.3.bias f4 [16]
-0.13285404 -0.2424473 -0.07911209 0.1743927 0.24657457 0.6415212 0.037608065 -0.11461547
-0.21180756 0.087899394 0.24348289 -0.9573963 -0.4162747 0.4573084 0.84325624 0.0073595075
00000000: e40a 08be 1b44 78be 8505 a2bd 0094 323e
00000010: 0b7e 7c3e bc3a 243f ea0a 1a3d 84bb eabd
00000020: 15e4 58be 9904 b43d 9453 793e ed17 75bf
00000030: f521 d5be 5424 ea3e a4df 573f 0628 f13b

ResPart.stack0_0.Block.3.running_mean f4 [16]
-0.070911095 -0.65108883 -0.57141453 -1.0059234 0.11352058 -0.29478166 -0.6028367 0.18901046
1.0052202 0.7759653 -0.9095785 -0.7062703 0.9603962 2.1737883 -2.1824703 -0.78866047
00000000: d639 91bd c2ad 26bf 3948 12bf 19c2 80bf
00000010: 7a7d e83d 9fed 96be 8253 1abf f58b 413e
00000020: 0eab 803f a9a5 463f 23da 68bf 21ce 34bf
00000030: 86dc 753f 591f 0b40 98ad 0bc0 a7e5 49bf

ResPart.stack0_0.Block.3.running_var f4 [16]
0.68255264 0.86760616 0.6798879 0.7354298 0.9177785 0.8632416 0.61909646 0.74427575
0.9201722 2.6818082 1.1018639 0.48245385 0.8771613 0.78959894 1.5612034 1.7602829
00000000: c5bb 2e3f 701b 5e3f 220d 2e3f 2145 3c3f
00000010: 88f3 6a3f 67fd 5c3f 1b7d 1e3f db88 3e3f
00000020: 6890 6b3f bfa2 2b40 e009 8d3f 3104 f73e
00000030: a58d 603f 2823 4a3f 83d5 c73f f350 e13f

ResPart.stack0_0.Block.3.weight f4 [16]
0.8178535 0.9785553 0.73962027 0.8912859 0.74631304 0.6748996 0.7996729 0.946875
1.1967602 1.1689459 0.9216529 0.9890042 1.1398075 0.8136221 0.9362575 1.0315332
00000000: d95e 513f 9a82 7a3f c157 3d3f 502b 643f
00000010: 5f0e 3f3f 38c6 2c3f 5db7 4c3f 6666 723f
00000020: 702f 993f 05a0 953f 72f1 6b3f 612f 7d3f
00000030: 36e5 913f 8a49 503f 92ae 6f3f 4809 843f

ResPart.stack0_0.Block.5.bias f4 [16]
0.021029344 -0.012646356 0.008654519 -0.005319216 -0.01843022 -0.02122771 0.020216659 0.0026048005
0.019030921 -0.021131426 0.011397982 -0.015790349 0.0011713842 -0.00798079 0.010352896 0.019039959
00000000: bb45 ac3c a932 4fbc afcb 0d3c d14c aebb
00000010: f9fa 96bc bce5 adbc 689d a53c 4db5 2a3b
00000020: bce6 9b3c d01b adbc 9abe 3a3c c35a 81bc
00000030: 2289 993a dcc1 02bc 319f 293c b0f9 9b3c

ResPart.stack0_0.Block.5.weight f4 [16, 16, 3, 3]
-0.0065739704 -0.033632193 0.006860597 0.13404611 0.24701984 -0.004282427 -0.03613479 -0.16682585
-0.15656461 -0.07775063 -0.15183072 -0.17780484 -0.11783664 -0.0111660175 -0.17488444 0.03277357
-0.09149666 -0.2316316 -0.11645949 0.0033671865 -0.11225726 -0.13992327 -0.026464425 -0.052657392
0.1569122 0.3243361 0.29142326 -0.0028840273 0.034712628 0.020051215 0.11463141 0.35684237
-0.25983778 -0.094581775 -0.036216322 -0.23030312 0.21347624 -0.012781651 0.14206424 0.102575846
0.24826622 0.017881328 0.14231905 -0.43699232 -0.28249386 0.115599364 0.29593036 0.055040494
-0.27413705 -0.13956492 -0.12385729 -0.3241385 0.1417072 -0.059302058 0.0059319064 -0.01886493
-0.22141878 0.0082779825 0.07896201 -0.04538245 -0.21879083 -0.0519154 -0.109049305 -0.30862856
0.1539158 -0.057986427 0.042752113 0.36660522 0.10167395 -0.16869776 0.046114836 -0.17700991
0.08972393 -0.014610422 -0.04771396 0.021849738 -0.061734576 -0.17626615 0.09877029 -0.07872379
-0.12305193 0.049162734 0.027650284 -0.13446951 -0.13528049 -0.22727905 -0.5975776 -0.14633685
-0.41438064 -0.5624326 0.14502983 0.08929474 0.0813045 0.21372075 0.013896435 0.026429694
-0.35111558 -0.3184752 -0.18579711 0.10427035 0.20650934 0.109602235 0.3118606 0.1937652
0.114052 0.12703842 0.022541303 -0.124390475 0.24141978 -0.0064814887 0.06902174 -0.108360514
-0.21884972 -0.19966297 0.27409485 -0.12511535 0.13227266 0.1340856 0.10962967 0.11573333
0.23265181 -0.075598925 0.25655589 0.20591451 -0.02566943 -0.074207366 0.007073259 0.30844593
-0.055975076 -0.04031723 -0.058120273 -0.012023109 -0.3840691 -0.35292247 -0.5032451 -0.0478148
0.09493607 -0.009692457 -0.4610067 -0.54716194 -0.23827133 -0.12903112 -0.0335934 0.09718909
0.30580717 0.06235653 0.14129576 0.24417621 0.15089937 0.15152459 0.073348984 -0.09895529
0.056929804 -0.16909596 -0.19442801 -0.048754334 -0.20687315 -0.22790293 0.06557765 -0.12646641
-0.15790854 0.17525804 -0.13676281 -0.05522741 -0.032688417 -0.38106355 -0.2213163 -0.2939027
-0.4335096 -0.27475327 -0.27806833 -0.28036568 -0.36001235 -0.03345883 -0.13053164 -0.105882354
-0.11186368 0.102108866 -0.12909351 0.14192376 -0.27679977 -0.30292356 0.035407472 -0.14787363
0.07480965 -0.035514556 0.05304941 0.015996145 -0.17158094 0.21599346 0.077599876 -0.12000842
0.09806233 -0.12506057 0.15292202 -0.34806237 0.43187863 0.25187957 0.049644087 0.12748878
0.061429404 -0.0579735 -0.06850579 -0.03773787 -0.34569997 -0.26908252 -0.11919323 -0.51590776
-0.53888345 -0.24774909 -0.4370581 -0.49763823 -0.1157397 -0.12395456 0.040540196 0.1953683
0.3543124 0.22342937 -0.07680549 -0.0052164686 -0.04821719 -0.38394 -0.006971836 -0.08117491
-0.2461492 -0.062487107 -0.12007047 0.08816157 0.13578227 -0.084198475 0.08449185 0.18125507
-0.1833969 -0.21247709 0.090596765 0.3502884 0.0098890215 0.36458465 0.19611926 -0.27332193
0.24339151 -0.007488559 -0.28891808 0.21485496 0.3204571 0.23500599 -0.033742353 0.060389247
-0.1568015 -0.19382994 -0.16333091 -0.10533215 0.048364695 0.22839302 0.22863832 0.08787237
00000000: 766a d7bb e9c1 09bd dcce e03b 6243 093e
00000010: c5f2 7c3e 9a53 8cbb 1302 14bd 65d4 2abe
00000020: 7952 20be b93b 9fbd 8379 1bbe 7912 36be
00000030: 5654 f1bd acf1 36bc e814 33be 943d 063d
00000040: 9a62 bbbd d630 6dbe 5082 eebd 04ac 5c3b
00000050: 22e7 e5bd 0c48 0fbe eccb d8bc 47af 57bd
00000060: 97ad 203e 620f a63e 6e35 953e f301 3dbb
00000070: d42e 0e3d 7242 a43c dfc3 ea3d 0bb4 b63e
00000080: 7509 85be 17b4 c1bd 9157 14bd 95d4 6bbe
00000090: 8499 5a3e 216a 51bc 4a79 113e 4913 d23d
000000a0: 8039 7e3e dd7b 923c 16bc 113e 75bd dfbe
000000b0: 09a3 90be 5cbf ec3d 2f84 973e 2472 613d
000000c0: b15b 8cbe 1bea 0ebe e4a8 fdbd 7bf5 a5be
000000d0: b11b 113e b7e6 72bd 7060 c23b a08a 9abc
000000e0: 9bbb 62be 60a0 073c d6b6 a13d f3e2 39bd
000000f0: b40a 60be 3ea5 54bd 3e55 dfbd 9004 9ebe
00000100: 1a9c 1d3e 2d83 6dbd d71c 2f3d aeb3 bb3e
00000110: 6f3a d03d 1bbf 2cbe e9e2 3c3d 1642 35be
00000120: 2ec1 b73d 8d60 6fbc b76f 43bd 39fe b23c
00000130: 65dd 7cbd 1d7f 34be 1448 ca3d f039 a1bd
00000140: a602 fcbd dd5e 493d d982 e23c 60b2 09be
00000150: f886 0abe d7bb 68be d8fa 18bf 54d9 15be
00000160: b329 d4be 95fb 0fbf b382 143e 29e0 b63d
00000170: f982 a63d 9dd9 5a3e dfad 633c 1683 d83c
00000180: 6cc5 b3be 2e0f a3be 9941 3ebe b18b d53d
00000190: 2f77 533e 2377 e03d 31ac 9f3e 626a 463e
000001a0: 1894 e93d 5c16 023e 8aa8 b83c 6fc0 febd
000001b0: bf36 773e ab62 d4bb 455b 8d3d 1eec ddbd
000001c0: 241a 60be 7374 4cbe 2956 8c3e 3d1e 00be
000001d0: 7c72 073e bc4d 093e 8585 e03d 9905 ed3d
000001e0: 473c 6e3e 9cd3 9abd 4b5b 833e 41db 523e
000001f0: b248 d2bc 08fa 97bd ccc6 e73b a0ec 9d3e
00000200: 1f46 65bd ae23 25bd 860f 6ebd 93fc 44bc
00000210: b4a4 c4be 41b2 b4be acd4 00bf 74d9 43bd
00000220: d86d c23d 1ccd 1ebc 1209 ecbe ce12 0cbf
00000230: 66fd 73be bc20 04be 3c99 09bd 130b c73d
00000240: c292 9c3e 9069 7f3d d6af 103e 5409 7a3e
00000250: 5d85 1a3e 4329 1b3e fe37 963d 12a9 cabd
00000260: 3a2f 693d 7e27 2dbe 2318 47be a0b2 47bd
00000270: 8ed6 53be 635f 69be 934d 863d 6980 01be
00000280: c7b2 21be d876 333e 8d0b 0cbe 2336 62bd
00000290: 4ae4 05bd c31a c3be bda0 62be 6a7a 96be
000002a0: f8f4 ddbe 76ac 8cbe f95e 8ebe 178c 8fbe
000002b0: 8a53 b8be 200c 09bd 16aa 05be d9d8 d8bd
000002c0: c918 e5bd 741e d13d 1731 04be 7654 113e
000002d0: b3b8 8dbe cc18 9bbe 6d07 113d 2f6c 17be
000002e0: cd35 993d b677 11bd 574a 593d 590a 833c
000002f0: eab2 2fbe 642d 5d3e afec 9e3d f9c6 f5bd
00000300: e7d4 c83d e10f 00be 9797 1c3e 3b35 b2be
00000310: 321f dd3e 5cf6 803e 9957 4b3d 6b8c 023e
00000320: 669d 7b3d 9f75 6dbd c34c 8cbd 0693 1abd
00000330: 96ff b0be 2fc5 89be 951b f4bd 8812 04bf
00000340: 44f4 09bf f0b1 7dbe 14c6 dfbe 70ca febe
00000350: f008 edbd e3db fdbd 7a0d 263d a10e 483e
00000360: 6f68 b53e abca 643e 324c 9dbd e9ee aabb
00000370: 637f 45bd c993 c4be 0074 e4bb 083f a6bd
00000380: 890e 7cbe 7bf2 7fbd 82e7 f5bd 0e8e b43d
00000390: 820a 0b3e 4070 acbd 100a ad3d ee9a 393e
000003a0: 66cc 3bbe 9893 59be cc8a b93d 0059 b33e
000003b0: 9005 223c d7aa ba3e 7dd3 483e daf0 8bbe
000003c0: a03b 793e 9662 f5bb 12ed 93be f002 5c3e
000003d0: f412 a43e 69a5 703e 6c35 0abd b75a 773d
000003e0: 9390 20be 5b7b 46be 3840 27be 62b8 d7bd
000003f0: 0f1a 463d dcdf 693e 2a20 6a3e 6ef6 b33d

ResPart.stack0_0.Block.6.bias f4 [16]
-0.053120635 0.13767682 -0.099649675 0.051983546 -0.020664033 0.48396564 0.4191508 -0.6002145
0.42340332 -0.06509308 0.23908393 -0.048077088 -0.035980694 0.13156521 0.2916082 -0.10553431
00000000: 0695 59bd 27fb 0c3e 2115 ccbd b3ec 543d
00000010: 9e47 a9bc 58ca f73e ef9a d63e a8a7 19bf
00000020: 52c8 d83e 854f 85bd 6bd2 743e 7bec 44bd
00000030: 7e60 13bd 08b9 063e ac4d 953e 5f22 d8bd

ResPart.stack0_0.Block.6.running_mean f4 [16]
-2.223995 -0.829551 -0.04778922 -0.110000126 -0.966548 0.666053 -0.15085001 2.895337
-1.0830538 0.11698486 -0.98421216 1.2036784 -1.8556058 -2.7129397 -1.3509241 -2.6276555
00000000: ef55 0ec0 745d 54bf a1be 43bd bf47 e1bd
00000010: b16f 77bf 7382 2a3f 6d78 1abe 344d 3940
00000020: 82a1 8abf c295 ef3d 54f5 7bbf 2212 9a3f
00000030: 7e84 edbf cea0 2dc0 15eb acbf 822b 28c0

ResPart.stack0_0.Block.6.running_var f4 [16]
3.1266515 5.141284 8.4514475 4.9079685 4.5356617 6.0343165 3.6812513 2.7353315
5.0001297 3.8012702 3.9923985 4.458398 6.049236 3.5109134 3.2201138 4.3655434
00000000: 0f1b 4840 6685 a440 2139 0741 140e 9d40
00000010: 2424 9140 1f19 c140 9f99 6b40 ac0f 2f40
00000020: 1001 a040 0348 7340 7583 7f40 32ab 8e40
00000030: 5793 c140 ceb2 6040 5816 4e40 88b2 8b40

ResPart.stack0_0.Block.6.weight f4 [16]
1.1048934 0.8882159 1.1039748 0.8987288 1.0735934 0.7619696 0.78014696 1.0788597
0.8590208 0.9412365 0.85653853 0.83766234 1.1095824 0.9933471 0.7365323 0.94177866
00000000: 266d 8d3f 1e62 633f 0c4f 8d3f 1713 663f
00000010: 826b 893f 7110 433f b6b7 473f 1318 8a3f
00000020: cae8 5b3f e0f4 703f 1c46 5b3f 0a71 563f
00000030: cc06 8e3f ff4b 7e3f 618d 3c3f 6818 713f

ResPart.stack0_0.Block.8.bias f4 [64]
-0.14343229 -0.05831517 -0.027865766 -0.029210163 -0.002648902 -0.18839103 0.10743241 -0.07647522
-0.049065154 -0.15980725 0.05647729 0.09683115 0.18466142 0.07491304 -0.06830322 -0.008014925
-0.11867812 -0.18899488 -0.014594893 0.26147598 0.11900923 0.07981911 -0.046825286 -0.090326786
-0.20055625 0.0039445376 0.2880111 0.023469185 -0.12913077 0.16162474 0.11609453 -0.044860415
-0.02801688 0.024647558 -0.1929713 -0.18390113 -0.019376174 -0.16394131 0.09864199 0.023352375
0.04470053 0.09143459 -0.1310939 0.25132108 0.029400947 0.07997904 -0.05588957 0.13242829
-0.011948009 0.21390931 -0.02561985 -0.3084225 -0.08100729 -0.05242652 0.12811142 0.13707177
-0.09909222 -0.072165236 -0.019008065 0.15900186 0.18033873 0.41189754 0.18688504 0.14743887
00000000: eadf 12be e3db 6ebd bf46 e4bc 274a efbc
00000010: 3399 2dbb 94e9 40be 8605 dc3d 0a9f 9cbd
00000020: 8bf8 48bd 83a4 23be bb54 673d 694f c63d
00000030: e217 3d3e 026c 993d 8fe2 8bbd 0851 03bc
00000040: 840d f3bd e087 41be 6b1f 6fbc 2ee0 853e
00000050: 1cbb f33d 3478 a33d dfcb 3fbd 40fd b8bd
00000060: 9e5e 4dbe 2e41 813b 3176 933e 7342 c03c
00000070: db3a 04be f580 253e f8c2 ed3d 8ebf 37bd
00000080: a883 e5bc ade9 c93c 459a 45be 9450 3cbe
00000090: c8ba 9ebc 3be0 27be d004 ca3d 7b4d bf3c
000000a0: e717 373d 0f42 bb3d 7b3d 06be 28ad 803e
000000b0: 41da f03c 0dcc a33d 76ec 64bd 489b 073e
000000c0: 95c1 43bc 0b0b 5b3e b8e0 d1bc 8ee9 9dbe
000000d0: 26e7 a5bd 31bd 56bd a42f 033e 8b5c 0c3e
000000e0: ddf0 cabd 5ecb 93bd cdb6 9bbc 62d1 223e
000000f0: b7aa 383e 3ce4 d23e cb5e 3f3e 37fa 163e

ResPart.stack0_0.Block.8.weight f4 [64, 16, 1, 1]
0.13714139 0.28604257 -0.21253656 0.0003557693 -0.0753221 -0.12651865 0.26851955 -0.24849023
-0.13975272 -0.15099128 0.014709058 -0.061709933 0.26930144 0.10240949 0.27218392 -0.110395074
0.24001588 -0.2025876 0.0485973 0.4558601 -0.10397126 -1.107522 -0.37357816 -0.10332656
0.2841548 -0.06780505 -0.13597585 0.19693826 0.046188496 -0.05367908 0.39305922 -0.36913934
0.48821747 -0.0057990793 0.2799222 0.13539979 0.04456548 0.22436671 0.03323842 0.030344406
-0.117245324 0.37553146 0.25614724 -0.40226272 -0.34781706 0.32378715 -0.47116694 -0.24384394
0.15036592 -0.0036276898 -0.2559978 0.2958774 0.059745867 -0.22557588 0.22575232 0.006586071
-0.0720037 0.10788642 0.92466414 0.12967837 -0.26580313 -0.1298797 -0.34498432 0.21177338
0.39141557 -0.006036253 0.12622018 -0.19384933 -0.07318685 0.31124222 -0.15234536 -0.08297502
0.10654687 -0.18395776 -0.15332101 -0.5721028 0.14269118 0.29422244 0.060512252 -0.33431444
-0.1616348 0.086641185 0.74071014 0.12515214 0.21034664 0.24727148 0.2500663 -0.4252563
0.34666473 0.0028827551 0.4258858 0.1191643 0.025054922 -0.022357421 -0.09273671 -0.21323526
0.31556857 0.013166018 -0.25253037 -0.031768177 0.024154702 0.44301856 -0.10825276 0.058867145
-0.13696769 0.0050811064 -0.116029 -0.6116969 0.3554109 -0.054400675 0.386023 0.07646383
-0.119790144 0.43198413 0.23941655 -0.07625693 0.0170507 -0.0011777021 -0.35026124 -0.40759242
0.07903694 -0.111646175 -0.1976667 -0.116540864 0.30959207 0.10176716 -0.44102576 -0.08185113
-0.10458907 -0.5011554 0.2369861 0.07313602 -0.11396645 -0.06064522 -0.13843307 0.16735524
-0.21644112 -0.22685842 0.1620295 -0.44017196 -0.009408151 0.29947492 -0.016975185 0.17839187
0.24141406 -0.16338909 -0.003353114 0.1733626 -0.08055576 -0.08864019 -0.11607064 0.36722034
-0.2486812 0.046642706 0.057161056 0.45472363 0.3677631 0.100752085 0.16841358 -0.16373056
0.10115312 -0.19556512 -0.20033203 -0.23437707 0.26539788 0.12240585 -0.1788887 0.25876692
-0.08664733 -0.19715759 -0.029656433 0.012385583 -0.34373522 -0.057849806 -0.10173388 -0.32395503
0.12678169 -0.15064497 -0.27020618 -0.06831458 -0.2653336 0.32758158 0.09737904 0.37135845
0.09996879 0.15556334 0.47520885 -0.4071465 -0.08534026 0.0742058 0.022855043 -0.12888162
-0.029355329 -0.4223003 0.16723251 -0.31960654 0.17578958 0.028989568 -0.28400785 0.20348333
0.053375654 0.34947184 -0.015963478 -0.028512666 -0.011004203 0.09446215 -0.13350238 -0.12277487
-0.20933858 -0.091978654 0.16779141 0.12986593 0.09428795 -0.11938952 0.24964643 0.42984447
0.6650364 -0.1494241 -0.4236746 0.070866935 -0.10350328 0.026145516 -0.3194623 0.30169195
0.32268488 -0.1099515 0.20415358 -0.33833268 0.28933525 0.019196581 -0.1612481 -0.35744065
0.2881427 -0.49872485 0.0008635566 -0.18558137 0.06871004 -0.20111851 0.07132029 0.7967726
0.12445448 -0.38352132 0.046466235 0.022669638 0.12645075 0.45585847 0.29408133 0.034399625
0.0022356622 0.21900347 0.13628587 -0.4752347 -0.21276666 0.031425808 -0.23068146 -0.22093847
00000000: cb6e 0c3e 2c74 923e 2fa3 59be 8c86 ba39
00000010: 7942 9abd 1b8e 01be 657b 893e 3974 7ebe
00000020: 561b 0fbe 759d 1abe 43fe 703c 8ec3 7cbd
00000030: e1e1 893e 11bc d13d b15b 8b3e d016 e2bd
00000040: b9c6 753e 2073 4fbe f60d 473d 7f66 e93e
00000050: e2ee d4bd 48c3 8dbf a345 bfbe e09c d3bd
00000060: bd7c 913e 60dd 8abd 413d 0bbe 2faa 493e
00000070: 2630 3d3d 98de 5bbd 0f3f c93e d5ff bcbe
00000080: a4f7 f93e 3406 bebb f651 8f3e 3ea6 0a3e
00000090: 4b8a 363d 63c0 653e 0225 083d d594 f83c
000000a0: 511e f0bd a945 c03e bb25 833e 61f5 cdbe
000000b0: 1415 b2be 6ec7 a53e cb3c f1be 3ab2 79be
000000c0: 86f9 193e 89be 6dbb 2512 83be 3e7d 973e
000000d0: 15b8 743d 5dfd 66be 9e2b 673e f8cf d73b
000000e0: ad76 93bd 8ef3 dc3d cab6 6c3f 68ca 043e
000000f0: 5917 88be 2fff 04be c9a1 b0be 1fdb 583e
00000100: 9f67 c83e c3cb c5bb dd3f 013e 7080 46be
00000110: fde2 95bd 245b 9f3e 6c00 1cbe cfee a9bd
00000120: 3f35 da3d 6c5f 3cbe 2f00 1dbe 5475 12bf
00000130: a31d 123e 53a4 963e b2db 773d 432b abbe
00000140: 9883 25be ef70 b13d 2e9f 3d3f e227 003e
00000150: 1c65 573e bc34 7d3e b108 803e 32bb d9be
00000160: 0a7e b13e 9bec 3c3b b40d da3e 6a0c f43d
00000170: fb3f cd3c e926 b7bc bfec bdbd 585a 5abe
00000180: 3492 a13e 48b6 573c a94b 81be 591f 02bd
00000190: 15e0 c53c 54d3 e23e 9fb3 ddbd ad1e 713d
000001a0: 4241 0cbe 697f a63b 9da0 edbd 2b98 1cbf
000001b0: 6bf8 b53e 3ed3 5ebd cfa4 c53e 1299 9c3d
000001c0: 8954 f5bd 062d dd3e 9d29 753e 982c 9cbd
000001d0: e9ad 8b3c 205d 9aba 7155 b3be f4af d0be
000001e0: 1fde a13d c0a6 e4bd 2469 4abe faac eebd
000001f0: da82 9e3e 4d6b d03d 21ce e1be 91a1 a7bd
00000200: cb32 d6bd b84b 00bf 7cac 723e 56c8 953d
00000210: 3e67 e9bd 1f67 78bd 66c1 0dbe 2c5f 2b3e
00000220: bea2 5dbe 934d 68be 10eb 253e 385e e1be
00000230: a524 1abc c754 993e 8b0f 8bbc 5cac 363e
00000240: 3f35 773e 784f 27be ebbf 5bbb f785 313e
00000250: 6bfa a4bd fd88 b5bd 72b6 edbd 4e04 bc3e
00000260: 49a6 7ebe 6c0c 3f3d b621 6a3d 89d1 e83e
00000270: 724b bc3e 1c57 ce3d 9c74 2c3e fca8 27be
00000280: 5e29 cf3d 3942 48be d723 4dbe 8b00 70be
00000290: 3be2 873e ebaf fa3d 992e 37be 197d 843e
000002a0: 2874 b1bd aee3 49be 0cf2 f2bc e6ec 4a3c
000002b0: 10fe afbe ebf3 6cbd da59 d0bd 6fdd a5be
000002c0: 0fd3 013e ad42 1abe 7758 8abe 84e8 8bbd
000002d0: ced9 87be c6b8 a73e aa6e c73d b222 be3e
000002e0: 70bc cc3d ff4b 1f3e 934e f33e 8275 d0be
000002f0: e0c6 aebd 36f9 973d 803a bb3c 8bf9 03be
00000300: 967a f0bc bf37 d8be 003f 2b3e 78a3 a3be
00000310: 2f02 343e 887b ed3c 7a69 91be ef5d 503e
00000320: 6ea0 5a3d f9ed b23e d7c5 82bc 6593 e9bc
00000330: f94a 34bc 5f75 c13d d9b4 08be 6471 fbbd
00000340: da5c 56be 4e5f bcbd 83d1 2b3e 93fb 043e
00000350: 0a1a c13d 7e82 f4bd 50a3 7f3e 9314 dc3e
00000360: d33f 2a3f a202 19be e1eb d8be af22 913d
00000370: 87f9 d3bd 1f2f d63c 9090 a3be 5e77 9a3e
00000380: f436 a53e 412e e1bd a30d 513e f139 adbe
00000390: c023 943e 2642 9d3c 391e 25be 7602 b7be
000003a0: 7187 933e dd58 ffbe 4d60 623a 0b09 3ebe
000003b0: d9b7 8c3d 03f2 4dbe 5f10 923d 4af9 4b3f
000003c0: fee1 fe3d e85c c4be 6153 3e3d adb5 b93c
000003d0: 4e7c 013e 4866 e93e d491 963e 9fe6 0c3d
000003e0: 3084 123b 7242 603e 868e 0b3e f651 f3be
000003f0: 81df 59be 59b8 003d c337 6cbe b23d 62be

ResPart.stack0_0.Shortcut.bias f4 [64]
-0.114371255 -0.10706056 0.10330693 0.013032906 -0.047943477 -0.2463749 0.06861264 -0.13676779
-0.0404677 -0.11840097 0.14047666 -0.026782041 0.031232117 0.025658064 0.059363212 0.033338577
-0.12956293 -0.15898135 -0.06397599 0.26407495 0.14747094 0.13192937 -0.13832548 -0.16757318
-0.19571286 0.120909706 0.29673737 0.06073696 -0.22200939 0.018135684 0.15548527 -0.016128406
-0.05368117 -0.084072016 -0.16349605 -0.17328776 -0.02144557 -0.027431611 0.09950587 0.070190825
0.06449232 0.008245854 -0.062124137 0.25879103 -0.07134107 0.008781335 0.008853952 0.2430092
-0.002858327 0.24872549 0.06366316 -0.3743851 0.020510644 -0.12892434 0.10011939 0.20424925
-0.07877358 -0.07083406 0.00034673576 0.20555036 0.1205597 0.30914244 0.19915676 0.26014596
00000000: 7a3b eabd 9142 dbbd 9592 d33d f887 553c
00000010: 6160 44bd b449 7cbe c984 8c3d db0c 0cbe
00000020: 76c1 25bd 357c f2bd 1dd9 0f3e 0366 dbbc
00000030: 7fda ff3c dc30 d23c d726 733d 088e 083d
00000040: 25ac 04be 02cc 22be d805 83bd d534 873e
00000050: 9f02 173e 7e18 073e 32a5 0dbe 4e98 2bbe
00000060: f468 48be 829f f73d f6ed 973e 52c7 783d
00000070: 6e56 63be 4991 943c 8837 1f3e b81f 84bc
00000080: c9e0 5bbd f32d acbd 826b 27be 5972 31be
00000090: 9fae afbc 42b8 e0bc bcc9 cb3d 35c0 8f3d
000000a0: 8d14 843d 9e19 073c e175 7ebd 4280 843e
000000b0: 441b 92bd 97df 0f3c 2b10 113c 67d7 783e
000000c0: c552 3bbb e5b1 7e3e d561 823d 67af bfbe
000000d0: f005 a83c be04 04be 650b cd3d b726 513e
000000e0: 0b54 a1bd 7311 91bd 16ca b539 cb7b 523e
000000f0: 01e8 f63d eb47 9e3e c0ef 4b3e da31 853e

ResPart.stack0_0.Shortcut.weight f4 [64, 16, 1, 1]
0.098593615 -0.12425765 -0.12539436 -0.2766757 0.13156638 0.16808067 -0.34109122 -0.2797181
-0.39882794 -0.1455128 0.12895048 -0.0071922606 0.07109218 -0.2972325 -0.36723158 -0.06712008
0.15366288 -0.019945288 0.08729835 -0.14315216 0.19143833 -0.1621128 0.11484774 0.006390568
0.042139366 0.11187607 0.21353626 -0.11010378 -0.0743542 0.014539102 0.087565154 0.019884478
-0.08655095 -0.017619235 -0.09319875 0.12936348 0.06289913 0.10643007 0.046289258 0.08827676
-0.1293308 0.008212657 -0.022085072 -0.13668771 -0.052439626 -0.15909676 -0.37095487 -0.291163
-0.040481854 -0.18803655 -0.10789489 0.10162008 0.023016741 -0.0013816676 0.0927892 -0.006315064
0.1082454 -0.064395644 -0.15130629 0.016858645 -0.23219687 0.3327709 0.03275522 -0.13581628
-0.21174769 0.07819179 0.077708 0.023998778 0.06952332 0.22321323 0.22469361 0.32010671
0.049928073 0.0090664225 0.06567475 -0.11785565 -0.013549519 0.12167633 -0.077741444 0.0341081
0.16963959 0.1741178 -0.023575649 0.07842516 0.05968367 -0.05542958 -0.19873731 0.36464784
0.17206833 -0.24075603 0.030654563 -0.14314312 0.16641717 0.023339594 0.022825554 0.059200294
-0.088036805 0.13361986 -0.083743654 0.028334206 -0.08571369 -0.041452583 0.31835824 0.023483992
0.00051997055 0.110162385 -0.09818804 0.020985415 0.0012787343 0.026975486 0.13027541 -0.08943613
-0.17948562 -0.17119078 -0.13993824 0.07653417 0.11105275 0.12801372 -0.1276076 -0.08929252
-0.0034694497 -0.16524014 0.031253494 -0.103719965 -7.029392e-05 0.25081763 0.21395878 0.12465245
0.13481084 0.014482768 -0.013867815 0.11484561 0.035763975 0.007370223 0.14057615 -0.04333521
-0.079510964 0.038427617 -0.065588795 -0.05774168 0.0511879 -0.082919694 -0.08460838 -0.1470984
0.019077813 0.058177732 -0.04249473 -0.10856034 -0.43583477 -0.1597698 -0.04769344 0.024891354
0.10924833 -0.12359094 0.31766158 -0.06661411 -0.12333699 0.022467904 0.010013824 -0.08974397
0.14944379 0.1582402 -0.10583083 -0.15214922 0.20102167 -0.29911596 -0.27820033 -0.12632576
-0.13541454 0.09174233 0.10214771 0.10129478 -0.0402819 -0.18322138 -0.37392777 -0.107931666
-0.048747092 0.22781292 -0.1971813 0.11400136 -0.012060228 -0.004996228 0.064654805 -0.054023936
-0.100451805 0.14384544 0.045260817 -0.084540844 0.113817446 -0.002078011 0.11774368 -0.19557372
0.069433436 -0.043968044 -0.06390989 -0.0779469 0.24816447 0.22358821 -0.17770581 -0.0808293
-0.044411965 0.052004002 -0.14548437 0.117416605 0.026392972 0.0394406 -0.09587791 0.0754873
0.15646058 0.093102835 -0.36121747 -0.21261892 0.06559485 0.13236053 0.14171273 -0.020383056
-0.009121718 0.033216402 0.09868614 -0.090660855 0.048676677 0.07103154 0.16203582 -0.0705147
-0.0025455002 0.030357253 -0.17253104 -0.18887223 0.015764926 0.144477 -0.082778975 -0.17558506
-0.08911146 -0.2111878 0.0591059 0.0790305 0.003938108 0.056751445 -0.06331952 0.069684245
0.042475276 0.35117933 -0.29953963 0.08496466 -0.039220907 0.10346536 0.26367074 0.04247534
-0.118864276 -0.01141972 -0.015607504 -0.2141059 0.04367503 -0.084057406 -0.08241761 -0.11699015
00000000: 73eb c93d cb7a febd 6167 00be 70a8 8dbe
00000010: 56b9 063e 571d 2c3e 82a3 aebe 3637 8fbe
00000020: 2d33 ccbe 4f01 15be 980b 043e 0ead ebbb
00000030: c798 913d dc2e 98be c705 bcbe 4176 89bd
00000040: cd59 1d3e 4d64 a3bc 7ac9 b23d 7b96 12be
00000050: 6908 443e e600 26be 4b35 eb3d f867 d13b
00000060: 549a 2c3d 481f e53d 40a9 5a3e 177e e1bd
00000070: 0447 98bd 6a35 6e3c 5c55 b33d c6e4 a23c
00000080: a041 b1bd 3756 90bc fcde bebd dc77 043e
00000090: 42d1 803d 02f8 d93d ce99 3d3d 72ca b43d
000000a0: 4b6f 04be 618e 063c c1eb b4bc ddf7 0bbe
000000b0: efca 56bd 43ea 22be cced bdbe 5113 95be
000000c0: 4dd0 25bd a78c 40be fff7 dcbd 301e d03d
000000d0: 9b8d bc3c 1219 b5ba 4408 be3d 99ee cebb
000000e0: c4af dd3d dde1 83bd 09f0 1abe 241b 8a3c
000000f0: 04c5 6dbe f360 aa3e 562a 063d 6c13 0bbe
00000100: 63d4 58be 0423 a03d 5f25 9f3d 1699 c43c
00000110: 3e62 8e3d 0292 643e 1516 663e 07e5 a33e
00000120: 6181 4c3d 558b 143c 7c80 863d 4e5e f1bd
00000130: cdfe 5dbc 7131 f93d e836 9fbd efb4 0b3d
00000140: 00b6 2d3e f04b 323e b821 c1bc 5f9d a03d
00000150: dd76 743d 210a 63bd cb81 4bbe 1fb3 ba3e
00000160: ae32 303e c088 76be 471f fb3c 1c94 12be
00000170: 4369 2a3e ad32 bf3c a8fc ba3c 027c 723d
00000180: a44c b4bd a5d3 083e cb81 abbd 231d e83c
00000190: a98a afbd 2fca 29bd daff a23e 8061 c03c
000001a0: a24e 083a d19c e13d d016 c9bd 9be9 ab3c
000001b0: 349b a73a b2fb dc3c eb66 053e 4a2a b7bd
000001c0: 14cb 37be a34c 2fbe f84b 0fbe f2bd 9c3d
000001d0: a06f e33d 0716 033e 91ab 02be ffde b6bd
000001e0: b55f 63bb b634 29be aa03 003d 226b d4bd
000001f0: c36a 93b8 2b6b 803e 0318 5b3e c949 ff3d
00000200: da0b 0a3e 2249 6d3c d535 63bc 2d34 eb3d
00000210: 3f7d 123d e981 f13b 32f3 0f3e 4380 31bd
00000220: a5d6 a2bd 4766 1d3d 6b53 86bd 8a82 6cbd
00000230: 67aa 513d cdd1 a9bd 2947 adbd f7a0 16be
00000240: 1349 9c3c c64b 6e3d f40e 2ebd e254 debd
00000250: bc25 dfbe b29a 23be 325a 43bd f4e8 cb3c
00000260: 97bd df3d 3f1d fdbd 8aa4 a23e fa6c 88bd
00000270: 1b98 fcbd 9c0e b83c 0611 243c b0cb b7bd
00000280: cb07 193e b809 223e d6bd d8bd 01cd 1bbe
00000290: a0d8 4d3e ba25 99be 4670 8ebe 8a5b 01be
000002a0: 1caa 0abe 67e3 bb3d d232 d13d a373 cf3d
000002b0: a2fe 24bd 639e 3bbe 7673 bfbe 470b ddbd
000002c0: 08ab 47bd ca47 693e e5e9 49be 8c79 e93d
000002d0: 4398 45bc 66b7 a3bb bd69 843d 3448 5dbd
000002e0: adb9 cdbd 384c 133e 6863 393d c023 adbd
000002f0: 1f19 e93d 3d2f 08bb 9923 f13d 7a44 48be
00000300: 1e33 8e3d d617 34bd 30e3 82bd a0a2 9fbd
00000310: d41e 7e3e 4ff4 643e 83f8 35be d589 a5bd
00000320: 52e9 35bd 2602 553d dbf9 14be 1e78 f03d
00000330: 1336 d83c 778c 213d a35b c4bd 1699 9a3d
00000340: 3437 203e b3ac be3d 7ff1 b8be c6b8 59be
00000350: 9856 863d 8589 073e 241d 113e 5efa a6bc
00000360: 4273 15bc ec0d 083d f51b ca3d 66ac b9bd
00000370: 3261 473d fc78 913d b8ec 253e 036a 90bd
00000380: 68d2 26bb c6af f83c faab 30be b967 41be
00000390: 7225 813c c7f1 133e 0688 a9bd 92cc 33be
000003a0: 1280 b6bd 9d41 58be 0719 723d beda a13d
000003b0: 3f0b 813b 3474 683d aaad 81bd 9db6 8e3d
000003c0: 8efa 2d3d c7cd b33e 425d 99be f401 ae3d
000003d0: 1aa6 20bd a6e5 d33d daff 863e 9ffa 2d3d
000003e0: 1d6f f3bd c719 3bbc 9eb6 7fbc 943e 5bbe
000003f0: 97e4 323d 4a26 acbd 90ca a8bd 8898 efbd

ResPart.stack0_1.Block.0.bias f4 [64]
-0.09156858 0.5519458 0.22901879 -0.2792466 0.095800914 -0.027389657 0.03867654 0.1568933
-0.19293278 -0.06552757 -0.06741634 0.095874935 -0.14114742 0.0016522809 0.008492897 0.52641594
-0.045063492 -0.2067498 0.15532283 0.10251589 0.31278852 -0.13683811 -0.1671238 -0.4891591
-0.2251033 -0.098371305 0.05620834 0.31055218 -0.08989948 -0.3323629 0.16071674 -0.013206635
-0.07205759 -0.045129504 -0.040226925 -0.0069656824 0.6301229 0.46418697 -0.30829763 -0.043881033
-0.074945144 0.32368758 -0.17512625 0.12584588 -0.0047142575 -0.26358163 0.10148288 -0.100764856
0.4416056 0.14053032 0.060289364 0.21796855 0.3437331 0.100235246 -0.09513618 0.3036551
-0.060141906 -0.14942403 0.69389683 0.05804073 0.0016689361 0.115655825 0.08176338 -0.15804596
00000000: 4f88 bbbd 524c 0d3f e783 6a3e 69f9 8ebe
00000010: 4533 c43d 4660 e0bc 4b6b 1e3d a3a8 203e
00000020: 2c90 45be 5233 86bd 9411 8abd 145a c43d
00000030: f388 10be 5991 d83a cb25 0b3c 32c3 063f
00000040: 7f94 38bd 38b6 53be f30c 1f3e daf3 d13d
00000050: d125 a03e 4a1f 0cbe 8022 2bbe 1073 fabe
00000060: 7b81 66be e576 c9bd b73a 663d b200 9f3e
00000070: 381d b8bd 782b aabe ee92 243e a460 58bc
00000080: ee92 93bd b7d9 38bd fdc4 24bd 6140 e4bb
00000090: bc4f 213f eaa9 ed3e 30d9 9dbe 99bc 33bd
000000a0: d77c 99bd 61ba a53e 4c54 33be bedd 003e
000000b0: 0f7a 9abb 2cf4 86be 42d6 cf3d ce5d cebd
000000c0: 211a e23e 2ee7 0f3e fbf1 763d 2633 5f3e
000000d0: c9fd af3e 2348 cd3d c2d6 c2bd ae78 9b3e
000000e0: 5c57 76bd 9d02 19be 39a3 313f 1ebc 6d3d
000000f0: 34c0 da3a f6dc ec3d 8f73 a73d cdd6 21be

ResPart.stack0_1.Block.0.running_mean f4 [64]
-0.065101534 -0.77054995 0.3575888 0.29902002 -0.022582477 0.43700942 0.3950948 -0.48610255
-0.412015 -0.033423714 -0.27646548 0.32178828 0.008005651 0.31106925 0.1321012 0.13468796
-0.008724023 -0.47184998 0.20787182 0.1732014 0.17746623 -0.08596706 0.12315772 0.14051893
-0.21920039 0.16303135 -0.1049646 -0.10370007 -0.5009756 0.24517713 0.068616845 -0.12435591
0.32112098 -0.048790555 -0.24000265 -0.4299379 -0.25622177 0.22340605 -0.3030085 0.098042354
-0.6293796 -0.10429368 -0.076973386 0.55103374 -1.2940395 0.49096224 0.20186903 -0.50653696
-0.59344816 0.68923175 0.24605156 -0.45963848 -0.4997873 0.24943948 0.1441433 0.22571528
-0.5554371 -0.473433 0.36359265 0.14675757 -0.3284437 0.60218126 0.81836826 0.39421147
00000000: f453 85bd c342 45bf e115 b73e 2719 993e
00000010: e3fe b8bc b3bf df3e de49 ca3e 6fe2 f8be
00000020: a1f3 d2be 4ee7 08bd e28c 8dbe 6fc1 a43e
00000030: 222a 033c 7844 9f3e 8945 073e a4eb 093e
00000040: 34ef 0ebc 5296 f1be 5adc 543e b55b 313e
00000050: b5b9 353e 7f0f b0bd 1d3a fc3d 32e4 0f3e
00000060: 1176 60be b1f1 263e aef7 d6bd b460 d4bd
00000070: f03f 00bf b70f 7b3e fd86 8c3d 50ae febd
00000080: f869 a43e 9bd8 47bd 41c3 75be d220 dcbe
00000090: 802f 83be 8ec4 643e ee23 9bbe 6eca c83d
000000a0: 051f 21bf ed97 d5bd 39a4 9dbd 8c10 0d3f
000000b0: 16a3 a5bf 675f fb3e c1b6 4e3e 68ac 01bf
000000c0: 38ec 17bf 7e71 303f f1f4 7b3e bc55 ebbe
000000d0: 1fe4 ffbe 106d 7f3e 4d9a 133e e821 673e
000000e0: 2031 0ebf cf65 f2be d128 ba3e 9e47 163e
000000f0: c629 a8be 8d28 1a3f 9580 513f 16d6 c93e
